2 vs 2 - def/Striker3_ppo_REBUILD_12M.onnx (onnx, 840518 bytes, 9 tensors)

action_model._discrete_distribution.branches.0.bias f4 [5]
0.062277645 0.002732387 -0.08708404 -0.00715386 0.07160209
00000000: d816 7f3d d911 333b 1e59 b2bd ed6a eabb
00000010: 1ea4 923d

action_model._discrete_distribution.branches.0.weight f4 [5, 256]
0.08838045 -0.033848513 -0.21522042 0.061911833 -0.14858678 -0.3213087 -0.04666345 -0.27272448
0.013729309 -0.104882546 -0.25541547 -0.026897267 0.22075883 0.13708255 0.09021442 0.35063866
0.03847585 -0.09100069 -0.37069324 0.25476378 0.25235736 -0.05263273 -0.03804895 0.20405346
0.10841152 -0.0046123452 0.29222134 0.008997036 -0.0077903997 -0.032465097 -0.10901153 0.17136563
-0.28053817 -0.39456406 -0.18232638 -0.120260924 -0.12675032 -0.06974119 0.299148 -0.05078879
-0.22033738 0.051178657 0.12978719 0.22624835 0.1473332 0.1540849 0.1782921 0.004971451
0.0869149 -0.13808614 0.011867507 0.22932091 0.013350025 0.47590497 -0.11372996 0.33326942
0.04809059 0.07803218 -0.27644503 -0.027388496 -0.04784827 -0.087100655 -0.24826682 -0.06394584
-0.26298672 0.21219191 -0.1857212 -0.090037964 0.15160957 -0.071496464 -0.19250463 0.013267703
0.17091087 -0.0016264213 -0.20682894 0.42130935 0.38268825 0.058350436 0.0563315 -0.005120274
0.16601445 -0.21695147 -0.279706 -0.09358091 -0.019181702 0.054782595 -0.026119925 -0.19989973
0.13286243 0.022586606 -0.17874783 -0.2787713 0.1961441 -0.055415772 0.19273447 0.36407351
0.15194866 0.045634557 -0.07924198 -0.018479861 0.054826695 0.23900308 -0.37683362 0.119256586
-0.3649184 -0.067397155 0.14226927 -0.3495765 -0.03582271 0.016485339 -0.1704647 0.20573983
0.006301012 -0.23351164 0.03400912 -0.005050955 0.16481408 -0.17498851 -0.33057478 -0.3786361
-0.3454752 -0.3189461 -0.26829007 -0.025434855 -0.102933474 -0.13662556 0.020076036 -0.42185098
-0.27936962 -0.04879177 0.088407926 0.2660621 0.2169659 0.19989549 0.10740088 0.13090712
0.07886115 -0.24357715 0.2880157 0.2695183 0.10546541 0.13867213 0.28392467 0.052821342
0.17501855 -0.12747283 0.12823094 -0.052992325 0.014877327 -0.266586 -0.0113521395 0.012165216
0.0802209 -0.015516911 0.10916516 -0.2486716 0.0497666 0.052925594 -0.027093828 -0.13991436
-0.23452924 0.06283812 0.11246443 -0.26271346 -0.34575635 -0.0743965 -0.06578719 -0.05437686
0.25189984 -0.15864305 -0.056999676 -0.29340222 0.2660352 0.161713 -0.42191046 -0.41609588
-0.1286266 -0.23242374 -0.09623196 0.07077228 -0.3921421 0.08057335 0.07393085 0.19636154
-0.29984558 -0.22440265 -0.0124541195 0.24802771 0.097593576 -0.2316893 -0.06246724 -0.11411894
-0.11404713 0.209877 0.20208487 -0.16539283 0.2600128 -0.010531452 0.16538279 0.08827651
0.023451786 0.04218929 0.1946343 0.0103896875 -0.27276713 -0.057238247 0.0630068 -0.33050647
0.19681242 -0.13433452 -0.21414956 -0.2368364 -0.25078973 -0.2559704 0.0918386 0.11565988
0.10718018 -0.017059559 -0.10124901 0.25483343 -0.118372194 -0.007826131 -0.24535654 0.012484337
-0.36657172 -0.06443235 0.24451816 0.22730795 0.06627697 0.15309471 -0.29379782 0.14889315
0.20595236 0.31666753 -0.030849284 -0.019911857 0.25529554 0.1257341 0.022042565 0.0602843
-0.22443533 -0.09281675 -0.06795361 -0.017024519 0.15036672 0.3316087 0.13194211 0.21808662
-0.2666904 -0.10729749 -0.15809554 0.11084163 -0.04636163 0.12647547 0.19906925 -0.16272785
00000000: cf00 b53d bda4 0abd be62 5cbe 4397 7d3d
00000010: 2227 18be 9382 a4be 2c22 3fbd 8ba2 8bbe
00000020: e5f0 603c a9cc d6bd d1c5 82be a857 dcbc
00000030: 9a0e 623e 5e5f 0c3e 56c2 b83d e986 b33e
00000040: da98 1d3d 925e babd 81cb bdbe 6670 823e
00000050: fc34 813e 6b95 57bd 37d9 1bbd 64f3 503e
00000060: dc06 de3d 2823 97bb 099e 953e 4e68 133c
00000070: 9c46 ffbb 1ffa 04bd 7041 dfbd 797a 2f3e
00000080: b3a2 8fbe 4d04 cabe c4b3 3abe 5c4b f6bd
00000090: d6ca 01be 78d4 8ebd ed29 993e e807 50bd
000000a0: 1fa0 61be b6a0 513d efe6 043e a6ad 673e
000000b0: 84de 163e 6fc8 1d3e 3492 363e 8ee7 a23b
000000c0: 7000 b23d 7466 0dbe ef6f 423c 1ad3 6a3e
000000d0: 10ba 5a3c d1a9 f33e 41eb e8bd 4aa2 aa3e
000000e0: a3fa 443d 56cf 9f3d 348a 8dbe d75d e0bc
000000f0: 8cfc 43bd d461 b2bd a839 7ebe 09f6 82bd
00000100: 32a6 86be d648 593e b32d 3ebe d365 b8bd
00000110: 8a3f 1b3e bd6c 92bd ef1f 45be c860 593c
00000120: 4203 2f3e a52d d5ba f7ca 53be dcb5 d73e
00000130: b7ef c33e de00 6f3d dcbb 663d f9c7 a7bb
00000140: b1ff 293e 8728 5ebe a035 8fbe 59a7 bfbd
00000150: f222 9dbc b763 603d 74f9 d5bc 84b2 4cbe
00000160: 170d 083e 8c07 b93c ac09 37be 1dbb 8ebe
00000170: 00da 483e a6fb 62bd 2f5c 453e d867 ba3e
00000180: 6e98 1b3e 4deb 3a3d 9f49 a2bd 1463 97bc
00000190: f591 603d 39bd 743e 56f0 c0be cc3c f43d
000001a0: 96d6 babe 8507 8abd 09af 113e b1fb b2be
000001b0: d5ba 12bd 430c 873c 4c8e 2ebe 76ad 523e
000001c0: b878 ce3b ad1d 6fbe 264d 0b3d 7b82 a5bb
000001d0: 06c5 283e 3030 33be 1941 a9be 97dc c1be
000001e0: 20e2 b0be e74c a3be 515d 89be c25c d0bc
000001f0: c9ce d2bd 92e7 0bbe 8076 a43c dafc d7be
00000200: 8909 8fbe e1d9 47bd 370f b53d 4b39 883e
00000210: 4f2c 5e3e 67b1 4c3e fef4 db3d 840c 063e
00000220: f481 a13d 4a6c 79be cb76 933e 4dfe 893e
00000230: 40fe d73d 1100 0e3e 935e 913e 315b 583d
00000240: 1038 333e 3d88 02be f94e 033e 7b0e 59bd
00000250: 08c0 733c f67d 88be 53fe 39bc 9d50 473c
00000260: db4a a43d a43a 7ebc fc91 df3d c5a3 7ebe
00000270: 10d8 4b3d 82c8 583d e0f3 ddbc b645 0fbe
00000280: 6f28 70be 46b1 803d c053 e63d 6182 86be
00000290: fa06 b1be 315d 98bd 6fbb 86bd 45ba 5ebd
000002a0: 04f9 803e 5373 22be 7e78 69bd d138 96be
000002b0: c435 883e 1898 253e a604 d8be 850a d5be
000002c0: b1b6 03be 7d00 6ebe 4315 c5bd 0ff1 903d
000002d0: d9c6 c8be a403 a53d 0f69 973d 0013 493e
000002e0: 5c85 99be cfc9 65be 5d0c 4cbc fafa 7d3e
000002f0: 24df c73d f63f 6dbe a6dd 7fbd 31b7 e9bd
00000300: 8b91 e9bd ffe9 563e 56ef 4e3e bd5c 29be
00000310: 6620 853e 1c8c 2cbc 1b5a 293e 51ca b43d
00000320: f61d c03c adce 2c3d 374e 473e 8239 2a3c
00000330: 22a8 8bbe a772 6abd b609 813d 2538 a9be
00000340: 3289 493e fd8e 09be 064a 5bbe 3e85 72be
00000350: 8367 80be 8d0e 83be e015 bc3d 16df ec3d
00000360: 4881 db3d 7dc0 8bbc a45b cfbd 8779 823e
00000370: 1f6d f2bd 2c39 00bc bf3e 7bbe 1b8b 4c3c
00000380: 4aaf bbbe 1cf5 83bd f862 7a3e 6ac3 683e
00000390: 38bc 873d dcc4 1c3e ab6c 96be 7277 183e
000003a0: 2de5 523e 3f22 a23e a3b7 fcbc 311e a3bc
000003b0: 19b6 823e 71c0 003e 9c92 b43c acec 763d
000003c0: 60d2 65be b516 bebd 432b 8bbd 0177 8bbc
000003d0: bcf9 193e 9ec8 a93e d51b 073e 1952 5f3e
000003e0: a58b 88be c9be dbbd cce3 21be f000 e33d
000003f0: b1e5 3dbd c982 013e cfd8 4b3e 21a2 26be

action_model._discrete_distribution.branches.1.bias f4 [3]
0.020003067 -0.021026596 0.009769581
00000000: 79dd a33c f83f acbc 9810 203c

action_model._discrete_distribution.branches.1.weight f4 [3, 256]
0.29115602 -0.14229573 -0.44456068 -0.1565206 0.12379973 0.21104708 0.21777464 -0.044999447
0.3059297 -0.16657156 0.0695147 0.18973725 0.4783253 0.20219864 0.051317606 -0.0027571851
0.08360982 -0.10053173 -0.1271457 -0.085384645 -0.39013964 -0.11416677 0.04732229 -0.15385537
-0.07870646 0.41129246 0.057850447 -0.4182283 -0.10413071 -0.02902452 0.004004632 0.03279397
0.058592204 -0.22492215 -0.13539442 -0.36034673 -0.045965258 0.18439595 0.042647183 -0.17970616
-0.1899872 0.020587847 0.26597178 0.09697183 -0.01635306 0.34299168 0.43416744 0.021332217
0.090890266 0.33009204 0.12769713 0.24210902 -0.15367803 -0.00948118 -0.4175373 0.40015155
-0.16630222 0.39903206 -0.3913372 0.14133513 0.017991686 -0.209768 -0.28627428 0.015202749
0.30197132 -0.08667989 -0.16687928 -0.38350663 0.20379756 -0.15060896 0.18821402 0.13506147
0.07840844 0.4963074 0.036175266 0.023541125 -0.07686285 0.22756512 0.20424324 0.26539358
0.15459044 -0.2807424 -0.21540275 0.13828333 0.017599255 -0.052996237 0.19934198 0.1810706
-0.22678028 -0.25248542 0.23644449 0.34148303 -0.14915995 0.10834711 -0.020104283 -0.10008939
0.06327033 0.19513711 0.26544893 -0.14475004 0.12936418 0.100170605 -0.058847357 -0.18066047
0.10502254 0.103979155 0.35594073 0.03455131 0.047110207 -0.20190763 0.062604934 0.05737548
0.11214678 -0.03930882 0.123256125 -0.1987679 -0.020206125 0.068200044 0.32820362 0.1009949
-0.037563294 -0.08592142 0.036732964 0.04179176 0.20161778 -0.093630165 -0.16094474 -0.038356338
0.047270555 -0.2102108 -0.09904451 -0.15897824 -0.20197403 0.099133246 -0.04435444 -0.36675987
-0.017850824 -0.3750293 -0.043587666 0.1622129 -0.56540483 -0.25580797 -0.09942741 0.28468382
-0.061932825 -0.1969479 0.079139434 -0.046460077 0.181667 0.08312656 -0.13604327 0.34078258
0.06307742 0.10746974 0.10317471 -0.05033222 -0.28806537 -0.05892562 -0.009356666 0.27558133
0.049413837 0.14397927 0.27558196 0.08771982 0.18186031 -0.3306156 -0.32466015 -0.08438053
-0.17561927 -0.019624263 -0.26190084 0.16030006 -0.2957679 0.16382334 0.0314728 -0.21291739
-0.2240307 0.07583758 1.125227e-05 0.12059378 0.2508281 -0.2605778 -0.23805118 0.21371411
0.16986041 -0.03959792 0.236284 0.115808874 -0.006251224 0.21182224 0.14532433 0.053583466
0.045791037 0.2711969 -0.09929184 0.15997334 0.17365934 0.28985548 -0.25440428 -0.025749033
-0.015808165 -0.3508843 0.17511319 0.16628978 0.27580842 -0.0460418 0.27092272 -0.18307303
0.32335332 0.19768724 0.16553982 -0.12041158 -0.21925263 0.10465478 -0.22227749 0.019022828
0.110158026 -0.16955079 0.01322519 -0.18101767 -0.034695454 -0.006056413 -0.38298762 -0.040952995
-0.18182804 -0.016737115 0.10398702 -0.056430902 -0.18504809 -0.31143722 -0.054305766 -0.07624673
-0.23148935 0.13686335 0.06308199 -0.38518205 -0.027899984 0.15082467 0.2228155 0.26432198
0.05943564 -0.37506086 -0.15883605 -0.31083223 0.09296403 0.12823929 -0.40274593 -0.051291965
0.26588294 0.091070995 0.22668843 0.032434575 0.0709039 0.22582173 -0.07662459 -0.0353898
00000000: 6712 953e f9b5 11be 759d e3be f046 20be
00000010: b68a fd3d ba1c 583e 5100 5f3e 5751 38bd
00000020: d1a2 9c3e bc91 2abe b95d 8e3d 7b4a 423e
00000030: 0ee7 f43e 290d 4f3e 6932 523d e4b1 34bb
00000040: a03b ab3d 94e3 cdbd 7b32 02be 25de aebd
00000050: 62c0 c7be 44d0 e9bd 04d5 413d 438c 1dbe
00000060: da30 a1bd ed94 d23e 97f4 6c3d 0522 d6be
00000070: 7b42 d5bd d5c4 edbc 4a39 833b f852 063d
00000080: 61fe 6f3d fe51 66be d6a4 0abe 5e7f b8be
00000090: 1146 3cbd 4bd2 3c3e d0ae 2e3d e404 38be
000000a0: 018c 42be d8a7 a83c 742d 883e 2b99 c63d
000000b0: daf6 85bc 9b9c af3e 324b de3e e7c0 ae3c
000000c0: ad24 ba3d d301 a93e 09c3 023e 6deb 773e
000000d0: c65d 1dbe f456 1bbc 73c7 d5be aae0 cc3e
000000e0: 214b 2abe ee4d cc3e 595d c8be 28ba 103e
000000f0: 4d63 933c 6ccd 56be 8b92 92be f314 793c
00000100: fc9b 9a3e 3a85 b1bd 67e2 2abe fb5a c4be
00000110: 4fb0 503e 3c39 1abe 2dbb 403e 8e4d 0a3e
00000120: 9b94 a03d 011c fe3e 842c 143d 51d9 c03c
00000130: 456a 9dbd d506 693e 2425 513e abe1 873e
00000140: f54c 1e3e 78bd 8fbe 8a92 5cbe 259a 0d3e
00000150: 502c 903c 9512 59bd 4e20 4c3e 926a 393e
00000160: 1739 68be c545 81be 811e 723e ddd6 ae3e
00000170: 63bd 18be 17e5 dd3d bdb1 a4bc abfb ccbd
00000180: e093 813d 06d2 473e ece8 873e 5b39 14be
00000190: 0b78 043e 3f26 cd3d ed09 71bd 0fff 38be
000001a0: 0f16 d73d 06f3 d43d dd3d b63e ad85 0d3d
000001b0: a2f6 403d e0c0 4ebe 0437 803d 8d02 6b3d
000001c0: 36ad e53d 4902 21bd b56d fc3d d089 4bbe
000001d0: 5187 a5bc 77ac 8b3d 4e0a a83e 6ad6 ce3d
000001e0: f8db 19bd 92f7 afbd 4e75 163d d62d 2b3d
000001f0: e474 4e3e 2cc1 bfbd b3ce 24be 891b 1dbd
00000200: c59e 413d 8041 57be d9d7 cabd 31cb 22be
00000210: 48d2 4ebe 5f06 cb3d 00ad 35bd f3c7 bbbe
00000220: e43b 92bc d703 c0be fb88 32bd 231b 263e
00000230: 5fbe 10bf 43f9 82be 99a0 cbbd 14c2 913e
00000240: 46ad 7dbd b6ac 49be db13 a23d ec4c 3ebd
00000250: ea06 3a3e 423e aa3d ed4e 0bbe 0e7b ae3e
00000260: bc2e 813d 1819 dc3d 434d d33d 2829 4ebd
00000270: 4e7d 93be fe5b 71bd b44c 19bc ff18 8d3e
00000280: 2a66 4a3d 4d6f 133e 1419 8d3e 73a6 b33d
00000290: 9739 3a3e 7346 a9be db39 a6be b3cf acbd
000002a0: 8ad5 33be 10c3 a0bc de17 86be b325 243e
000002b0: e46e 97be 4ec1 273e 9fe9 003d 0407 5abe
000002c0: 4e68 65be bc50 9b3d 22c8 3c37 dff9 f63d
000002d0: 8a6c 803e 746a 85be b0c3 73be dfd7 5a3e
000002e0: e3ef 2d3e 6e31 22bd 6ff4 713e 342d ed3d
000002f0: 11d7 ccbb eee7 583e e7cf 143e 567a 5b3d
00000300: 628f 3b3d 52da 8a3e 8559 cbbd 0dd0 233e
00000310: c1d3 313e f067 943e 4741 82be a3ef d2bc
00000320: 2080 81bc 1ba7 b3be df50 333e de47 2a3e
00000330: c336 8d3e 5496 3cbd 62b6 8a3e 7f77 3bbe
00000340: 918e a53e 866e 4a3e 4583 293e 599a f6bd
00000350: c383 60be 3f55 d63d b69c 63be c3d5 9b3c
00000360: 889a e13d b99e 2dbe 78ae 583c b25c 39be
00000370: d21c 0ebd e074 c6bb f416 c4be 54be 27bd
00000380: 2131 3abe 461c 89bc 26f7 d43d 1724 67bd
00000390: 3f7d 3dbe b374 9fbe b96f 5ebd 3f27 9cbd
000003a0: 8b0b 6dbe e825 0c3e 2131 813d 9536 c5be
000003b0: 828e e4bc c871 1a3e bf29 643e 3655 873e
000003c0: c972 733d fa07 c0be eba5 22be 6725 9fbe
000003d0: ed63 be3d 2951 033e b734 cebe 8617 52bd
000003e0: cf21 883e 6e83 ba3d 0321 683e 1eda 043d
000003f0: 1036 913d d03d 673e 5aed 9cbd e5f4 10bd

discrete_action_output_shape f4 [1, 2]
5.0 3.0
00000000: 0000 a040 0000 4040

network_body._body_endoder.seq_layers.0.bias f4 [256]
0.15099365 -0.09463813 -0.028083825 -0.107890636 0.032439902 0.030658318 -0.10518822 -0.021244919
-0.065781265 0.017122345 0.10689703 0.008204097 -0.08394527 -0.06983874 -0.043898195 -0.01611383
-0.11428531 -0.14215806 -0.12982818 -0.17695084 0.032263476 -0.1415411 0.03956804 -0.07990219
-0.053687837 0.013829825 -0.016606806 -0.08498211 0.11532426 -0.15194558 0.0076154456 -0.033392366
0.14718369 0.011990339 0.059310034 -0.0031882373 -0.08714456 -0.2460621 -0.09678887 -0.14170581
-0.04301541 -0.08051098 -0.060965657 -0.041824017 -0.09844401 0.10240819 0.118312016 -0.10978415
0.002988024 0.047573388 0.07017109 -0.0600614 -0.09477404 0.020802155 -0.047872223 -0.019138174
0.007758416 -0.19936237 -0.074105285 -0.18046632 -0.0038964723 0.19031027 0.08003729 0.0029781046
-0.061065227 -0.006013049 -0.10500596 -0.017914278 -0.14205389 -0.006429068 0.07734221 -0.015107655
-0.13455899 -0.16530567 -0.040713258 -0.010322648 0.0133500695 -0.10620168 -0.12409654 -0.07676842
-0.052198593 -0.08373243 -0.14730473 -0.08006396 0.07075289 -0.07735648 -0.021308 -0.08748655
-0.13446178 0.012082385 -0.051167786 0.06308866 0.015192128 0.14932592 -0.038382396 0.03173946
0.106354855 -0.0082584405 -0.08550271 -0.06356983 0.04375989 0.033020753 -0.033561744 -0.08945752
-0.077280276 -0.029056922 0.005671024 -0.011144131 0.0015684852 -0.16488667 -0.09327387 -0.11970175
-0.077071644 0.034659926 -0.067149855 -0.10690484 -0.029685736 0.056694023 0.13981962 -0.0531866
-0.22277673 -0.045753613 -0.051891796 -0.081794165 -0.04353103 -0.06424072 0.017968146 -0.071560554
0.054711483 0.034008387 -0.01236044 -0.17242645 0.025323259 0.003713257 -0.11304585 0.013320944
-0.03296521 0.057385873 -0.03089437 -0.09998816 -0.04359949 0.06879784 -0.032336757 -0.059259105
0.04150368 -0.07750545 -0.0029620745 0.057209667 -0.023871727 -0.12832361 -0.102010384 -0.1257108
0.0039642975 -0.04015599 -0.084534466 -0.339556 -0.1251614 -0.025600102 -0.028624145 -0.10621936
-0.049562544 0.043238014 -0.010855757 -0.14042813 0.052670922 0.07468824 0.030780515 0.05599638
0.24055515 -0.07592546 0.026979625 -0.029945834 -0.19222392 -0.033072747 -0.23880784 -0.0573845
0.09115442 -0.04603023 -0.02803173 0.114599876 0.04262917 -0.15835427 -0.08739899 -0.04998159
-0.07285518 -0.111917414 -0.16273083 -0.023737388 0.029081004 -0.079447135 -0.16446617 0.0266083
0.11268921 0.06798987 0.0035460005 -0.011497161 0.030097943 -0.009917006 0.044524807 -0.026269367
-0.07535218 0.056139603 0.10562011 0.07310355 -0.042645272 -0.043388564 -0.053965226 0.08140535
-0.10778675 0.028465474 -0.0026006696 0.0034266403 0.07166521 -0.0031742954 -0.18043038 -0.035744257
-0.07756222 -0.073415406 -0.18680263 -0.026408901 -0.053332277 -0.047363862 -0.09908744 -0.15698798
-0.027210401 -0.026773786 -0.027992515 -0.22188416 0.018051801 0.005781406 -0.10604634 0.01507079
-0.18988846 -0.016066685 0.12298529 -0.015908416 -0.18678427 -0.11929181 0.03153931 0.07524696
-0.016126998 -0.042825904 -0.0020435324 0.07647951 -0.0728843 -0.09776091 0.077368475 0.18380558
-0.16545089 -0.076097004 -0.112784095 -0.079322726 -0.06829867 -0.085198544 -0.06429311 0.030796036
00000000: 149e 1a3e a3d1 c1bd 0d10 e6bc c4f5 dcbd
00000010: b4df 043d 2727 fb3c ec6c d7bd d309 aebc
00000020: 54b8 86bd 2944 8c3c d4ec da3d 7a6a 063c
00000030: 7feb abbd 9d07 8fbd 98ce 33bd 2701 84bc
00000040: 6b0e eabd e291 11be aef1 04be 9a32 35be
00000050: b526 043d 26f0 10be 1912 223d c2a3 a3bd
00000060: c7e7 5bbd 7e96 623c ff0a 88bc 1a0b aebd
00000070: 202f ec3d 9f97 1bbe fd8a f93b 6fc6 08bd
00000080: 52b7 163e 2073 443c 14ef 723d bff1 50bb
00000090: d978 b2bd b4f7 7bbe 3e39 c6bd 541b 11be
000000a0: ed30 30bd f1e2 a4bd 20b7 79bd a94f 2bbd
000000b0: 039d c9bd 63bb d13d 924d f23d 83d6 e0bd
000000c0: b9d2 433b 50dc 423d dcb5 8f3d f102 76bd
000000d0: e418 c2bd 4869 aa3c aa15 44bd a9c7 9cbc
000000e0: 4f3a fe3b a625 4cbe 83c4 97bd 2acc 38be
000000f0: f55b 7fbb b2e0 423e 97ea a33d 4e2c 433b
00000100: 881f 7abd 1c09 c5bb 5d0d d7bd f7c0 92bc
00000110: 9376 11be eeaa d2bb 9865 9e3d 1986 77bc
00000120: d5c9 09be e445 29be f2c2 26bd 5320 29bc
00000130: 40ba 5a3c 4480 d9bd 5426 febd c338 9dbd
00000140: 31ce 55bd e97b abbd 0dd7 16be 93f8 a3bd
00000150: e4e6 903d 136d 9ebd 1d8e aebc 262c b3bd
00000160: 59b0 09be 32f5 453c 5095 51bd a134 813d
00000170: 67e8 783c e5e8 183e dc36 1dbd 3c01 023d
00000180: 93d0 d93d 694e 07bc 0b1c afbd e630 82bd
00000190: 923d 333d c540 073d 0a78 09bd 8135 b7bd
000001a0: 1f45 9ebd c808 eebc ffd3 b93b e095 36bc
000001b0: a195 cd3a 0dd8 28be 5f06 bfbd 3126 f5bd
000001c0: bdd7 9dbd 91f7 0d3d dd85 89bd edf0 dabd
000001d0: 802f f3bc fe37 683d e02c 0f3e 31da 59bd
000001e0: 951f 64be 2468 3bbd 7e8c 54bd b383 a7bd
000001f0: 984d 32bd a390 83bd ef31 933c 578e 92bd
00000200: 2619 603d 614c 0b3d 7183 4abc 8f90 30be
00000210: b972 cf3c 1d5a 733b 9584 e7bd 1740 5a3c
00000220: 8706 07bd 730d 6b3d 3116 fdbc 98c6 ccbd
00000230: 6195 32bd e2e5 8c3d 8c73 04bd adb9 72bd
00000240: c3ff 293d 2dbb 9ebd 5d1f 42bb af54 6a3d
00000250: a48e c3bc 4467 03be d2ea d0bd 55ba 00be
00000260: f0e6 813b 9b7a 24bd 6820 adbd 49da adbe
00000270: 4f2a 00be 4eb7 d1bc 2f7d eabc 8989 d9bd
00000280: 1802 4bbd 581a 313d 58dc 31bc 64cc 0fbe
00000290: 77bd 573d 26f6 983d 6b27 fc3c 765c 653d
000002a0: 1754 763e cf7e 9bbd 6004 dd3c f750 f5bc
000002b0: 59d6 44be 4a77 07bd 0b8a 74be 020c 6bbd
000002c0: 2baf ba3d 328a 3cbd cca2 e5bc 57b3 ea3d
000002d0: ed9b 2e3d 9f27 22be 3efe b2bd 7fb9 4cbd
000002e0: 1935 95bd f534 e5bd e9a2 26be e974 c2bc
000002f0: 493b ee3c 2eb5 a2bd d269 28be a6f9 d93c
00000300: 9ac9 e63d 463e 8b3d 0464 683b 975e 3cbc
00000310: f68f f63c f07a 22bc a55f 363d db32 d7bc
00000320: 3e52 9abd a4f2 653d 5b4f d83d 50b7 953d
00000330: cfac 2ebd 35b8 31bd a40a 5dbd d9b7 a63d
00000340: 4dbf dcbd 6d30 e93c ff6f 2abb 7c91 603b
00000350: 36c5 923d d707 50bb bec2 38be 9268 12bd
00000360: f1d8 9ebd d15a 96bd 3049 3fbe 7b57 d8bc
00000370: f272 5abd 9c00 42bd 5bee cabd 75c1 20be
00000380: 59e8 debc b354 dbbc 8f50 e5bc 9a35 63be
00000390: 5fe1 933c f371 bd3b d32e d9bd 7aeb 763c
000003a0: 1f72 42be 489e 83bc b6df fb3d 5e52 82bc
000003b0: 6044 3fbe 444f f4bd 5d2f 013d 141b 9a3d
000003c0: c41c 84bc 376a 2fbd c9ec 05bb 4aa1 9c3d
000003d0: 5d44 95bd df36 c8bd 5d73 9e3d 8837 3c3e
000003e0: f56b 29be bfd8 9bbd 59fb e6bd f473 a2bd
000003f0: 2ce0 8bbd 937c aebd 1bac 83bd f847 fc3c

network_body._body_endoder.seq_layers.0.weight f4 [256, 552]
0.0344045 0.15608111 0.31203625 -0.2816604 -0.22075294 -0.31391862 -0.014205256 0.11763872
0.0027293514 -0.31855384 -0.22876091 -0.21301919 -0.2319339 -0.19233197 -0.115365505 0.0898381
-0.16205628 -0.19483064 -0.02347554 -0.1673536 0.09751247 -0.4015776 -0.0011312803 -0.022718925
0.32007262 0.20107147 -0.26041147 0.011910841 0.062139276 -0.45158586 -0.22345135 0.08365681
-0.034356482 -0.18122457 -0.30570516 -0.2650052 -0.36464027 -0.42758247 -0.055997744 0.028449617
-0.14180744 -0.34507936 -0.03694367 0.0053209807 -0.054451007 -0.0037895984 -0.10909741 0.020832328
-0.25666764 -0.046310943 -0.00858728 0.010773916 -0.28536522 0.31493032 0.006908776 0.12844221
-0.0586859 -0.040091768 0.03969015 -0.34280634 -0.39731696 0.13398005 -0.13184991 0.03885634
-0.10168027 -0.014248655 0.07776074 0.026819946 -0.25188923 -0.14503062 0.026554866 0.08871014
0.37970057 -0.52143806 0.36041754 0.2063842 -0.30134442 -0.10860655 -0.1513904 -0.047966767
0.0035840431 -0.23087059 -0.42554966 -0.27967367 -0.07238593 0.023063986 -0.1778661 0.015165094
0.23640123 -0.3161337 0.14430816 -0.17492363 0.17774892 -0.18038449 0.018179536 0.04330302
-0.088210374 0.30613795 -0.2623797 -0.18339424 -0.39921042 0.06839042 -0.123838 0.15513021
0.18515305 0.034622304 -0.08561179 -0.10912036 0.012685378 -0.2002384 -0.13868417 0.0018241791
0.2888432 0.15249449 0.2966214 -0.39843872 0.03669029 -0.07576023 -0.05160525 -0.105675384
-0.020443507 -0.07919744 0.2067451 -0.4327766 0.03131159 0.20731008 -0.0899363 -0.0025952137
0.24399021 0.08109865 0.527529 -0.25301605 -0.16080979 -0.35548064 -0.19704643 -0.13373332
-0.21822189 -0.08132995 0.031725332 -0.40355876 -0.13020661 0.1538163 -0.14824842 0.049704302
0.2657922 0.051625133 -0.0063423174 -0.28409448 -0.22234717 -0.45368475 -0.18116194 0.10331894
-0.0025301334 -0.00079309766 0.09455791 -0.2633302 -0.6871583 0.13457681 0.030316833 0.067993246
0.064772844 0.06955878 0.37178442 -0.33113694 -0.09217925 0.091409706 0.0063417214 0.02949038
0.14082378 -0.08775309 0.22982256 -0.55279446 -0.37911823 0.10998484 -0.15068473 0.041368343
-0.143397 0.26170138 0.49729645 -0.26547885 -0.40311685 0.16838716 -0.02818319 -0.07181154
0.19793351 -0.1825182 0.2989663 -0.28373274 -0.14732005 -0.13789015 -0.08030711 0.1302909
0.26888183 -0.71578574 0.17105596 0.218109 -0.25417268 -0.20704648 -0.19103171 -0.0400625
-0.11622729 0.06891654 0.051660776 0.036594834 -0.39891735 -0.15525416 -0.13589908 0.10128397
0.2850392 0.120385885 -0.107801855 0.25822023 -0.14084274 -0.0358817 -0.27618286 -0.0287327
-0.2672707 -0.3176445 0.453689 -0.14688453 0.02295209 -0.49751526 -0.21296036 -0.043095678
0.0723346 -0.19230534 0.3849509 0.29342255 -0.09313146 -0.1209675 -0.17181097 -0.03851501
-0.3666041 -0.44833425 0.20869079 -0.046094906 -0.26358083 0.038072553 -0.05975031 -0.0517465
-0.15380329 -0.02903534 -0.34949067 0.28636554 0.22636613 0.20449898 -0.06655888 -0.04104966
-0.13493936 -0.05684184 0.19724646 -0.12652135 -0.18880166 0.10377649 -0.03585312 -0.10284693
00000000: bceb 0c3d bad3 1f3e 37c3 9f3e cb35 90be
00000010: 0f0d 62be f1b9 a0be 29bd 68bc 92ec f03d
00000020: ebde 323b 7d19 a3be 4d40 6abe b421 5abe
00000030: 1580 6dbe acf2 44be c044 ecbd 0afd b73d
00000040: 15f2 25be af81 47be c74f c0bc be5e 2bbe
00000050: 9eb4 c73d 949b cdbe 7847 94ba 0a1d babc
00000060: 8fe0 a33e aee5 4d3e a754 85be b025 433c
00000070: c185 7e3d 4336 e7be 6ed0 64be 4354 ab3d
00000080: 62b9 0cbd ef92 39be 6385 9cbe c3ae 87be
00000090: 21b2 babe 17ec dabe e45d 65bd 2c0f e93c
000000a0: f835 11be 3eae b0be 3f52 17bd 9f5b ae3b
000000b0: 0508 5fbd e95a 78bb 776e dfbd 8fa8 aa3c
000000c0: f169 83be 8bb0 3dbd aab1 0cbc 1485 303c
000000d0: 641b 92be 8c3e a13e 0363 e23b 5b86 033e
000000e0: a060 70bd 4437 24bd 2492 223d 5084 afbe
000000f0: 216d cbbe 1132 093e aa03 07be d327 1f3d
00000100: bf3d d0bd 3173 69bc 0641 9f3d 81b5 db3c
00000110: a0f7 80be e882 14be 9789 d93c a9ad b53d
00000120: 1d68 c23e f77c 05bf a688 b83e 6156 533e
00000130: d149 9abe 1c6d debd 1606 1bbe cd78 44bd
00000140: 44e2 6a3b 5769 6cbe a5e1 d9be 6331 8fbe
00000150: 133f 94bd aff0 bc3c 8822 36be 0477 783c
00000160: 2a13 723e 47dc a1be 85c5 133e 2e1f 33be
00000170: d003 363e b6b6 38be 40ed 943c 825e 313d
00000180: a4a7 b4bd 1dbe 9c3e a256 86be b3cb 3bbe
00000190: 4f65 ccbe 4710 8c3d c79e fdbd 74da 1e3e
000001a0: c398 3d3e 1ed0 0d3d 3c55 afbd 7f7a dfbd
000001b0: 55d6 4f3c 4c0b 4dbe 3903 0ebe 4b19 ef3a
000001c0: 42e3 933e 8427 1c3e c3de 973e 2900 ccbe
000001d0: 8f48 163d 2e28 9bbd 0760 53bd 566c d8bd
000001e0: 2479 a7bc 4432 a2bd fdb4 533e e594 ddbe
000001f0: 9540 003d 1849 543e 8630 b8bd 7614 2abb
00000200: 92d8 793e 0d17 a63d 240c 073f 528b 81be
00000210: 52ab 24be 8f01 b6be 8ac6 49be 63f1 08be
00000220: 8f75 5fbe 5190 a6bd 6cf2 013d 419f cebe
00000230: e254 05be 0582 1d3e 6fce 17be bd96 4b3d
00000240: ea15 883e e074 533d 37d3 cfbb d574 91be
00000250: faae 63be 5e49 e8be 8482 39be e198 d33d
00000260: 98d0 25bb e2e7 4fba 94a7 c13d 37d3 86be
00000270: 9be9 2fbf 81ce 093e 025b f83c 0b40 8b3d
00000280: a0a7 843d d574 8e3d 875a be3e c88a a9be
00000290: 7ac8 bcbd 0335 bb3d 37ce cf3b cf95 f13c
000002a0: 1c34 103e e4b7 b3bd 9b56 6b3e f083 0dbf
000002b0: c91b c2be bb3f e13d 194d 1abe da71 293d
000002c0: aad6 12be b9fd 853e a49d fe3e d8ec 87be
000002d0: 5565 cebe af6d 2c3e 6fe0 e6bc ee11 93bd
000002e0: 15af 4a3e 0de6 3abe 1c12 993e 6b45 91be
000002f0: 11db 16be 1333 0dbe 0e78 a4bd fa6a 053e
00000300: e1aa 893e bc3d 37bf 4b29 2f3e f757 5f3e
00000310: ec22 82be fe03 54be d19d 43be 9318 24bd
00000320: 9308 eebd 1d24 8d3d 409a 533d 77e4 153d
00000330: e53e ccbe f2fa 1ebe 2129 0bbe f86d cf3d
00000340: a8f0 913e e08c f63d 38c7 dcbd 7135 843e
00000350: 1439 10be b1f8 12bd d767 8dbe d760 ebbc
00000360: b5d7 88be 4da2 a2be ed49 e83e e668 16be
00000370: 0506 bc3c 52ba febe 4812 5abe 1885 30bd
00000380: 2a24 943d b1eb 44be 4918 c53e 7b3b 963e
00000390: b5bb bebd cfbd f7bd 37ef 2fbe eac1 1dbd
000003a0: 88b3 bbbe 118c e5be 0ab3 553e 03ce 3cbd
000003b0: 11f4 86be f7f1 1b3d bebc 74bd 23f4 53bd
000003c0: 9c7e 1dbe 85db edbc 71f0 b2be 819e 923e
000003d0: 86cc 673e 2e68 513e 0650 88bd b023 28bd
000003e0: 8b2d 0abe fdd2 68bd fafa 493e d08e 01be
000003f0: 3955 41be c588 d43d b9da 12bd 69a1 d2bd

network_body._body_endoder.seq_layers.2.bias f4 [256]
0.0026751372 0.04790952 -0.03531261 0.023447877 -0.032183535 -0.0076254047 0.04477703 -0.056561492
-0.047713976 -0.049206022 0.07824295 -0.110117935 0.058838658 0.042857707 -0.07553963 -0.07942519
-0.13105078 0.014768738 -0.29539528 -0.09842393 -0.00044216285 -0.14005727 -0.21587656 -0.18123308
0.04185398 0.12221631 -0.24203552 -0.17780195 -0.0028722188 -0.14015812 -0.051156104 -0.12544322
0.007596226 0.054538738 -0.08151385 0.036422428 0.022088338 -0.08515063 -0.0023423817 -0.08904415
-0.17495896 -0.055587668 -0.05885507 -0.036430165 -0.1443006 -0.16887987 -0.019323938 -0.06480049
0.029536117 -0.10512317 -0.13747911 -0.037623517 -0.030829484 -0.03719772 -0.004151944 0.032278392
0.0052891513 -0.055252686 -0.1538493 -0.07283255 -0.15804052 0.0022191736 -0.11274864 -0.24803613
-0.10557354 -0.042215012 -0.2782524 -0.048962712 0.08909475 -0.120060615 -0.12608123 -0.06639546
0.02643175 -0.017526574 -0.020903964 -0.027783293 -0.17966355 0.043817 -0.18966506 -0.060378082
-0.11214717 -0.076044 -0.120829016 0.013626386 0.018390046 0.022177994 -0.05977752 -0.06484411
-0.047695372 -0.22664943 -0.09811625 0.070740715 -0.0395404 0.039440338 -0.007069303 -0.04715926
-0.06705891 0.0018890755 0.03466293 -0.010498226 0.054881994 -0.096563116 -0.018561091 0.01477525
0.02109235 0.09713906 0.026617987 0.05563862 0.15092999 -0.13114166 0.0021049872 -0.08308772
-0.0026398783 -0.078655444 0.041899964 -0.110989586 -0.16851552 -0.21139829 0.039662316 -0.14613253
0.16121092 -0.07083275 -0.029207777 -0.31936982 0.013324054 -0.016555035 -0.012384827 -0.03256043
-0.120947555 -0.06235136 0.057653245 -0.12013074 -0.009762846 0.043122455 -0.0146836825 -0.16827044
-0.121575125 -0.019026857 -0.025336215 -0.087010674 -0.1913675 -0.14610943 -0.09273199 0.00026537932
-0.007490165 -0.22412339 0.11416211 0.10237644 0.04213762 -0.075922884 -0.0752341 -0.008306296
-0.09344001 0.073348075 -0.10353368 -0.14329758 -0.08177472 -0.17103955 -0.06809076 0.021205043
-0.15272367 -0.07631277 -0.10122041 0.08020413 0.020994952 -0.07932584 -0.2143243 0.07094199
-0.12601374 0.037208185 -0.22785638 -0.07611445 -0.09994652 0.02976731 -0.12353819 0.0013288137
-0.26152554 0.091857605 -0.1337648 -0.109285146 -0.04002284 -0.030296784 -0.06996967 0.07977512
-0.041880444 -0.31061396 -0.050748188 0.10596591 0.097255796 -0.017024886 0.11558415 -0.18090531
-0.15563738 0.06487293 -0.019870298 -0.036595058 0.012794964 0.074141875 -0.2544229 -0.24475141
0.030990705 -0.09928632 -0.026005523 -0.10591491 0.0560094 -0.08360801 -0.1516996 -0.18495427
-0.0071820733 -0.14764585 -0.19507566 -0.10325681 -0.34641132 -0.0073338905 -0.11081533 -0.07389131
-0.07366764 -0.14550978 0.09404254 0.052756127 -0.14775866 -0.119130984 -0.045090314 -0.042810038
0.023878803 -0.19203183 0.110653326 -0.096724294 -0.15506832 -0.17721364 0.17964418 0.0029368019
-0.29447195 0.052272342 -0.09743165 -0.16196005 -0.03841487 -0.23950267 -0.021795176 0.017268399
-0.1208222 -0.2552906 -0.042517554 -0.089191794 -0.07633539 -0.060078908 -0.22461168 -0.050136965
-0.070005134 -0.08315575 0.007958412 -0.20284928 0.03888644 -0.0075648087 0.15385929 0.04744434
00000000: 5b51 2f3b c63c 443d f5a3 10bd c315 c03c
00000010: e2d2 03bd 88de f9bb 1e68 373d 06ad 67bd
00000020: bb6f 43bd 418c 49bd d73d a03d 8385 e1bd
00000030: ce00 713d 908b 2f3d 86b4 9abd ada9 a2bd
00000040: 2d32 06be 94f8 713c 0d3e 97be 7c92 c9bd
00000050: 18d2 e7b9 2c6b 0fbe bf0e 5dbe 2a95 39be
00000060: 146f 2b3d 8b4c fa3d 29d8 77be b711 36be
00000070: d63b 3cbb 9c85 0fbe 1089 51bd 3074 00be
00000080: c3e9 f83b 0364 5f3d bcf0 a6bd af2f 153d
00000090: 9af2 b43c 7463 aebd a582 19bb c85c b6bd
000000a0: 7128 33be e5af 63bd 0412 71bd cc37 15bd
000000b0: 89c3 13be d8ee 2cbe 3c4d 9ebc 1fb6 84bd
000000c0: baf5 f13c d14a d7bd 53c7 0cbe 1e1b 1abd
000000d0: 1d8e fcbc a35c 18bd 080d 88bb 5936 043d
000000e0: 9e50 ad3b a450 62bd ac8a 1dbe 3b29 95bd
000000f0: 60d5 21be 8e6f 113b c2e8 e6bd 2ffd 7dbe
00000100: f136 d8bd a6e9 2cbd 1977 8ebe 208d 48bd
00000110: 4f77 b63d 57e2 f5bd 701b 01be 58fa 87bd
00000120: 6687 d83c e493 8fbc ca3e abbc ca99 e3bc
00000130: b9f9 37be 7479 333d 8f37 42be 024f 77bd
00000140: 6aad e5bd f5bc 9bbd 3475 f7bd 3541 5f3c
00000150: b9a6 963c a0ae b53c 46d9 74bd fdcc 84bd
00000160: 395c 43bd ca16 68be 2cf1 c8bd 82e0 903d
00000170: 1df5 21bd 318c 213d 9da5 e7bb 112a 41bd
00000180: 2f56 89bd db9a f73a b7fa 0d3d c000 2cbc
00000190: f1cb 603d e2c2 c5bd 6e0d 98bc e413 723c
000001a0: ddc9 ac3c d8f0 c63d f70d da3c 52e5 633d
000001b0: 648d 1a3e 004a 06be d3f3 093b e529 aabd
000001c0: cf01 2dbb 1b16 a1bd 4c9f 2b3d 824e e3bd
000001d0: 558f 2cbe cb78 58be f474 223d c4a3 15be
000001e0: 7a14 253e c310 91bd 2645 efbc 7184 a3be
000001f0: 224d 5a3c 6d9e 87bc bbe9 4abc 165e 05bd
00000200: 5ab3 f7bd 2464 7fbd cf25 6c3d 1b07 f6bd
00000210: 58f4 1fbc 2ca1 303d d493 70bc 164f 2cbe
00000220: 61fc f8bd 36de 9bbc e58d cfbc a732 b2bd
00000230: d8f5 43be b69d 15be 45ea bdbd 9c22 8b39
00000240: 0f70 f5bb 9a80 65be d3cd e93d bdaa d13d
00000250: 7f98 2c3d 757d 9bbd 5614 9abd 2117 08bc
00000260: 7a5d bfbd 8437 963d 7709 d4bd 9abc 12be
00000270: 8179 a7bd fe24 2fbe 2b73 8bbd 33b6 ad3c
00000280: 9863 1cbe df49 9cbd a54c cfbd 1042 a43d
00000290: 9bfd ab3c 9675 a2bd d477 5bbe 094a 913d
000002a0: bf09 01be 9c67 183d 2f53 69be e5e1 9bbd
000002b0: c3b0 ccbd 93da f33c 9701 fdbd 972b ae3a
000002c0: ade6 85be d71f bc3d a4f9 08be e4d0 dfbd
000002d0: fdee 23bd f630 f8bc 424c 8fbd 2361 a33d
000002e0: d48a 2bbd cb08 9fbe 55dd 4fbd a804 d93d
000002f0: 0c2e c73d c677 8bbc 62b7 ec3d 3e3f 39be
00000300: 685f 1fbe 19dc 843d 09c7 a2bc b3e4 15bd
00000310: f8a1 513c b2d7 973d b843 82be 1da0 7abe
00000320: 38e0 fd3c a056 cbbd 8909 d5bc ebe9 d8bd
00000330: 1d6a 653d ad3a abbd 2457 1bbe a764 3dbe
00000340: 9957 ebbb 7930 17be eac1 47be 4e78 d3bd
00000350: d35c b1be 2251 f0bb 26f3 e2bd 5454 97bd
00000360: 0fdf 96bd 8400 15be 6099 c03d cf16 583d
00000370: 0c4e 17be f2fa f3bd 9fb0 38bd 9459 2fbd
00000380: 7b9d c33c fea3 44be 369e e23d 6317 c6bd
00000390: 3bca 1ebe 7e77 35be a5f4 373e 5c77 403b
000003a0: 07c5 96be 861b 563d 3f8a c7bd dbd8 25be
000003b0: e958 1dbd 3040 75be cc8b b2bc 7576 8d3c
000003c0: a171 f7bd 73b5 82be e326 2ebd 30aa b6bd
000003d0: bb55 9cbd 4d15 76bd 9b00 66be 6b5c 4dbd
000003e0: da5e 8fbd 904d aabd 0064 023c b9b7 4fbe
000003f0: 6347 1f3d 37e2 f7bb 4a8d 1d3e ff54 423d

network_body._body_endoder.seq_layers.2.weight f4 [256, 256]
-0.05198806 -0.20691368 -0.22202633 -0.054966982 -0.30450636 -0.3015785 -0.03865952 -0.17992866
0.04897181 0.020970844 0.3984852 -0.20038776 0.013160277 -0.0025475882 0.08515305 -0.07648332
-0.1397763 -0.4922708 0.2564874 -0.07666215 0.15182139 -0.05085247 -0.07476124 -0.23156838
0.014250933 0.13048331 -0.16909254 -0.109478645 0.10620863 0.064020485 0.15175655 -0.052406587
0.39287254 0.19047536 0.18670592 0.33593926 -0.18774562 -0.15977767 -0.1631186 0.16328877
0.28563425 -0.6548381 -0.036901966 0.3084027 -0.5048878 -0.0050258245 -0.1292852 -0.06631167
0.08555998 0.13525222 -0.12659007 0.25706872 -0.35167336 -0.40289894 -0.256518 -0.33056927
0.062668756 -0.11970307 0.024418492 -0.3283074 -0.5133866 0.20206055 -0.064957276 -0.15962194
0.23336352 0.032136515 -0.21256055 -0.123973966 -0.5691217 0.2139441 0.08212647 0.204845
0.16286902 0.21520743 -0.08230573 -0.42479596 0.28681657 0.038808774 0.084245585 -0.23175594
-0.25743762 -0.10625141 0.10154272 -0.15482078 0.22323702 -0.20840167 -0.29821888 -0.22109044
-0.26075464 -0.35068947 -0.28020188 0.108117424 -0.14301269 -0.30837473 -0.2164164 0.34542206
0.07417346 -0.16138823 -0.1646592 0.08720687 -0.04677465 -0.124031514 -0.05104231 -0.017003935
0.21786885 0.051710498 -0.036188114 0.20605366 -0.28845 -0.22705951 -0.12468155 -0.20651329
-0.030839013 0.14302334 -0.0016081098 0.028728887 0.15671761 -0.13537912 0.27105805 -0.5659159
-0.17609106 0.16926146 -0.025354037 -0.2790235 0.027646711 -0.10943359 -0.19089861 -0.15281093
-0.07451426 0.12575164 0.07297615 -0.24318202 0.4899623 -0.4693956 0.19875392 -0.05543267
-0.29440734 -0.32641542 -0.30262324 0.016326224 0.06754931 0.21570535 -0.09376517 -0.05994302
-0.122259654 -0.08587822 -0.17652124 -0.049974192 -0.012483397 -0.08318385 0.043483872 -0.052168146
-0.025763413 0.2944257 -0.24006754 -0.09256459 0.15628532 -0.2790818 0.4161582 0.39474922
-0.079708114 -0.32690957 -0.27657717 -0.057243843 -0.4267819 0.16381422 -0.034670774 0.12933467
0.18088998 0.11796398 0.019028746 -0.17534058 -0.19156785 0.011481026 -0.14084433 0.027984345
-0.00014207621 -0.18601114 0.027458904 0.37343344 -0.05004926 -0.1071305 -0.1624092 -0.4288753
0.06891429 -0.25354874 -0.4485235 -0.08523589 0.0074346634 -0.3211404 0.01719136 0.06709971
-0.1464045 -0.27049744 -0.19794156 -0.3040811 0.35764027 -0.12688522 0.031855173 -0.36837035
0.35714325 0.13526618 0.25908902 -0.13441329 0.38624802 0.10760104 -0.085743256 -0.0024543633
0.19264375 -0.1425336 -0.25254568 0.20652434 0.098396935 0.18830025 -0.14567935 0.041650467
0.3976732 0.014286679 -0.06549966 0.12539372 -0.097659335 -0.10768724 0.06595127 0.06424044
-0.0007970303 0.064856224 0.06214584 -0.0670439 -0.3659699 -0.46177188 -0.1188611 -0.07014376
-0.06364428 0.024903348 0.11709305 0.3122304 -0.3080879 -0.27228284 -0.3125441 -0.36121836
-0.23473759 -0.52245826 -0.07168416 0.06857971 -0.22234572 0.13018997 -0.40940312 -0.13694102
-0.049539637 -0.31621087 -0.22443423 -0.24612656 0.0870939 0.06545444 -0.25467145 -0.016406478
00000000: 6ff1 54bd 2ee1 53be df5a 63be 0f25 61bd
00000010: 42e8 9bbe 7f68 9abe 7259 1ebd 383f 38be
00000020: aa96 483d 0ccb ab3c 4106 cc3e 7332 4dbe
00000030: 349e 573c 70f5 26bb b964 ae3d 49a3 9cbd
00000040: 8521 0fbe eb0a fcbe 5152 833e 0c01 9dbd
00000050: 1177 1b3e ae4a 50bd 6c1c 99bd 4320 6dbe
00000060: bf7c 693c 6b9d 053e 9826 2dbe 5736 e0bd
00000070: e983 d93d 2c1d 833d 1266 1b3e 4aa8 56bd
00000080: 9726 c93e f90b 433e d62f 3f3e 3b00 ac3e
00000090: 6340 40be c29c 23be 9008 27be 2c35 273e
000000a0: a73e 923e 78a3 27bf 8426 17bd f5e6 9d3e
000000b0: 5440 01bf acaf a4bb 5763 04be 6ace 87bd
000000c0: 123a af3d 8f7f 0a3e d4a0 01be 839e 833e
000000d0: 880e b4be c548 cebe 5456 83be 6040 a9be
000000e0: 7a58 803d e226 f5bd 4a09 c83c e817 a8be
000000f0: 4e6d 03bf f6e8 4e3e 5208 85bd ef73 23be
00000100: d9f6 6e3e 94a1 033d 79a9 59be 10e6 fdbd
00000110: f6b1 11bf 2a14 5b3e ec31 a83d e3c2 513e
00000120: 23c7 263e 565f 5c3e e88f a8bd db7e d9be
00000130: 9fd9 923e f3f5 1e3d f388 ac3d 6e51 6dbe
00000140: ddce 83be 579a d9bd a1f5 cf3d 5789 1ebe
00000150: 3f98 643e 3f67 55be 25b0 98be 8865 62be
00000160: a281 85be 928d b3be 9f76 8fbe ab6c dd3d
00000170: eb71 12be 4be3 9dbe 439c 5dbe 29db b03e
00000180: 41e8 973d f542 25be 6c9c 28be 8499 b23d
00000190: c796 3fbd 3c04 febd be11 51bd d64b 8bbc
000001a0: 0319 5f3e 63ce 533d fd39 14bd bbff 523e
000001b0: b8af 93be 4a82 68be 0a59 ffbd 3878 53be
000001c0: 19a2 fcbc b674 123e 36c7 d2ba d858 eb3c
000001d0: 957a 203e d3a0 0abe 1fc8 8a3e dddf 10bf
000001e0: 3751 34be e052 2d3e 45b3 cfbc 2bdc 8ebe
000001f0: 5b7b e23c b81e e0bd ed7a 43be 787a 1cbe
00000200: ef9a 98bd 0ac5 003e 8574 953d b504 79be
00000210: 57dc fa3e 9f54 f0be 2686 4b3e 5e0d 63bd
00000220: 8fbc 96be ec1f a7be 6ff1 9abe 93be 853c
00000230: 4b57 8a3d dde1 5c3e f407 c0bd d086 75bd
00000240: 4563 fabd ece0 afbd fcc1 34be bdb1 4cbd
00000250: 2987 4cbc 4b5c aabd 251c 323d 44ae 55bd
00000260: cb0d d3bc f7be 963e 44d4 75be 8192 bdbd
00000270: 4209 203e cfe3 8ebe b012 d53e 921c ca3e
00000280: 023e a3bd b160 a7be 869b 8dbe 8578 6abd
00000290: 2883 dabe eabe 273e f102 0ebd 4f70 043e
000002a0: 393b 393e 1997 f13d 2ce2 9b3c 7b8c 33be
000002b0: 5d2a 44be ea1a 3c3c 7f39 10be 6d3f e53c
000002c0: 4bfa 14b9 b479 3ebe 7ff1 e03c ab32 bf3e
000002d0: 7400 4dbd 3c67 dbbd 994e 26be 8b95 dbbe
000002e0: ef22 8d3d 24d1 81be dfa4 e5be 2790 aebd
000002f0: 7a9e f33b 846c a4be e5d4 8c3c 936b 893d
00000300: 10eb 15be a47e 8abe 31b1 4abe 85b0 9bbe
00000310: a01c b73e 33ee 01be 927a 023d 0a9b bcbe
00000320: 7bdb b63e 3883 0a3e 51a7 843e a3a3 09be
00000330: 4dc2 c53e ef5d dc3d 299a afbd 62d9 20bb
00000340: 6744 453e 54f4 11be ab4d 81be 1e7b 533e
00000350: 5584 c93d c8d1 403e f82c 15be ae99 2a3d
00000360: d29b cb3e ad12 6a3c b024 86bd 3667 003e
00000370: 9e01 c8bd 218b dcbd 7611 873d 7e90 833d
00000380: ccef 50ba 57d3 843d a38c 7e3d 504e 89bd
00000390: 6860 bbbe 5d6d ecbe 736d f3bd 88a7 8fbd
000003a0: ef57 82bd 1b02 cc3c 7bce ef3d aadc 9f3e
000003b0: b2bd 9dbe a868 8bbe c805 a0be 9df1 b8be
000003c0: 0d5f 70be d3bf 05bf 25cf 92bd 8573 8c3d
000003d0: 99ae 63be 8550 053e 499d d1be 443a 0cbe
000003e0: 13ea 4abd 64e6 a1be 16d2 65be 9a08 7cbe
000003f0: 495e b23d fa0c 863d 4c64 82be e166 86bc
