2 vs 2 - def/Striker3_ppo_REBUILD_24M.onnx (onnx, 840518 bytes, 9 tensors)

action_model._discrete_distribution.branches.0.bias f4 [5]
000000 67 12 0f 3e 6b b3 0a be c2 e4 33 bd d9 05 e8 3d
       0.13971864 -0.13545005 -0.043919332 0.1132924
000010 fd 0a bf bc
       -0.02332067

action_model._discrete_distribution.branches.0.weight f4 [5, 256]
000000 e5 80 1d 3e a2 43 f8 bd 1e c5 10 be db 35 7b bd
       0.153812 -0.12122275 -0.14137694 -0.061330657
000010 f9 21 42 be 4f ee 87 be 94 11 aa be dd ae 5e be
       -0.18958272 -0.26549003 -0.33216536 -0.21746393
000020 0a e4 34 3d 1e 5b 13 bd ba c2 c0 be 0a 6e 0c 3e
       0.044162787 -0.035975568 -0.37648565 0.13713852
000030 da c9 03 3e 58 e7 20 3e 0a aa 91 3d 29 40 cb 3e
       0.12869969 0.1571325 0.071125105 0.39697388
000040 53 51 4b bd 12 13 ed bd 23 c6 bd be b0 90 94 3e
       -0.049638104 -0.11575903 -0.3706523 0.29016638
000050 74 b8 24 3e 61 fe 4e 3d 7d 92 e4 bd 25 32 70 3e
       0.16085988 0.050535563 -0.11160753 0.23456629
000060 24 6d f0 3d 59 04 ce bd 55 96 b7 3e 0c 5a e2 bc
       0.11739567 -0.10059423 0.35856882 -0.027630828
000070 06 27 07 3e 1f 85 6d 3d b0 05 82 be fe 0b 20 3e
       0.1319848 0.057988282 -0.25394964 0.15629575
000080 50 e5 09 be db b2 dc be 84 a1 1f be 06 76 07 be
       -0.13466382 -0.43105206 -0.15588957 -0.13228616
000090 3a 84 cb bd be 4b 82 bd ec 73 5e 3e 35 75 ab 3d
       -0.099373296 -0.06362103 0.21723908 0.08371965
0000a0 2d 51 85 be 0e b7 b7 3a ad 2e 98 3d 41 d5 14 3e
       -0.26038495 0.0014016347 0.07430778 0.14534475
0000b0 78 db 3e 3e a7 41 f4 3d a6 34 52 3e b7 02 f7 3c
       0.18638408 0.11926585 0.20527896 0.030152662
0000c0 ac 8d 31 3e a6 22 8b bc e2 aa a6 3d 0c e7 ba 3e
       0.173392 -0.016984295 0.08138062 0.365044
0000d0 0d f3 25 3c ce 84 ef 3e 92 c3 7f be f5 7d b1 3e
       0.010128749 0.4678101 -0.24976948 0.3466641
0000e0 26 17 87 3d e6 6c dc bd f5 82 93 be 7b 44 8a 3d
       0.06596212 -0.10762958 -0.2881085 0.06751343
0000f0 16 4a 62 bd 6a 8a df bd ef 9d 65 be 8f e9 b3 bc
       -0.055246435 -0.10915072 -0.22423528 -0.021961955
000100 2f 39 6a be 42 15 45 3e fe 35 20 be d3 4d ec 3d
       -0.22873376 0.1924639 -0.15645596 0.11538281
000110 05 fb 7c 3e 7f 9b 09 be db 79 db bd 1c b2 ff 3d
       0.24705131 -0.13438223 -0.107166015 0.124851435
000120 60 9f 5c 3e 70 ea 01 bd f9 c3 8c be a0 bc 04 3f
       0.21545172 -0.031717718 -0.27493265 0.5185032
000130 bb b6 d3 3e e3 17 ae 3d a0 6b 77 3a 96 16 ba 3d
       0.4135035 0.0850065 0.00094383396 0.09086339
000140 98 3e ab 3e 55 02 47 be c7 71 6d be 7e 30 0c bd
       0.33446193 -0.19434483 -0.23187934 -0.034225933
000150 e8 2a 33 3b 29 df 13 3e 4e 30 1d bd 30 d2 81 be
       0.0027338807 0.14440598 -0.038376145 -0.25355673
000160 64 57 45 3e 46 8b bf 3d 54 7b 05 be 40 fd 5c bd
       0.19271618 0.09352736 -0.13035327 -0.053952456
000170 92 ef 07 3e 46 30 8a bb 75 6b 74 3e d8 d0 f1 3e
       0.13274983 -0.0042171804 0.23869117 0.47229648
000180 18 bd 5b 3e 8f 18 02 be 30 4f ba bd b7 ad 14 bd
       0.21458852 -0.12704681 -0.09097135 -0.03629848
000190 6f ce 8e 3d 2c 2c b7 3e 7d 55 b9 be 16 c1 8a 3e
       0.06972968 0.35775888 -0.36198035 0.27100438
0001a0 b2 cc df be ec 88 24 be f1 81 1d 3e 27 01 cd be
       -0.43710858 -0.16067857 0.153816 -0.40039942
0001b0 7a aa 2d be 0b 3c 9e bc ce cb 77 be 03 f0 1c 3e
       -0.16959563 -0.01931574 -0.24198839 0.15325932
0001c0 1d 94 97 3c 81 f3 20 be b4 a5 30 bd 5a 2d 9a bd
       0.018503243 -0.1571789 -0.043126777 -0.075281814
0001d0 81 01 e2 3d 16 bc 7e be 88 09 cd be 79 10 03 bf
       0.11035443 -0.24876437 -0.40046334 -0.5119701
0001e0 c7 50 8c be db 82 bc be b6 65 e6 be 22 a6 04 be
       -0.27405378 -0.36818585 -0.44999474 -0.12954
0001f0 fc 20 51 bd 05 f8 5b be 3c 2c a2 bd 36 72 0c bf
       -0.051056847 -0.2148133 -0.07918593 -0.5486177
000200 e2 a8 51 be b0 cb 04 be 5b a7 9d 3e 3f 2e ad 3e
       -0.2047458 -0.12968326 0.30791745 0.33824345
000210 6b 22 ba 3e 8b 94 86 3e b5 94 12 3e 02 26 1f 3e
       0.36354384 0.26285204 0.1431454 0.15541843
000220 95 ba 72 3e 9e 96 88 be d2 09 c1 3e f4 85 a8 3e
       0.23703988 -0.26677412 0.37702805 0.32914698
000230 9e bc f4 3b e1 1d 7a 3e 87 3d f0 3e d4 1c a1 3c
       0.007468774 0.2442546 0.46921942 0.019667067
000240 e4 9d c1 3d 1e a0 ec bd 18 74 84 3d b4 9c f8 bc
       0.09453943 -0.115539774 0.064674556 -0.03034816
000250 a9 6e 94 3c 41 66 a1 be bd b7 27 3d 55 17 88 bd
       0.018119173 -0.31523326 0.04094671 -0.06645075
000260 4c 51 bf bb 4f 31 bf 3d 80 62 f0 3d 46 05 b4 be
       -0.0058385488 0.09335577 0.117375374 -0.35160273
000270 5b 2a c6 bd fa fe a4 3b 93 2f ad 3d d3 90 3f be
       -0.096760474 0.0050352784 0.0845634 -0.1870759
000280 f5 c6 a7 be 2d 8f 84 3e 09 6d ea 3d 99 8c 39 be
       -0.3276898 0.25890484 0.11446578 -0.1812004
000290 9d b8 9c be 71 52 36 bd fd a3 99 3d 66 65 f7 3c
       -0.306096 -0.044512216 0.075019814 0.030199718
0002a0 6f e8 a2 3e fe 87 8f bc a0 95 4c 3e 25 6f bc be
       0.31817958 -0.0175209 0.19978952 -0.36803547
0002b0 17 84 0f 3e 33 ad 0b 3e e7 a3 c2 be 8a 10 10 bf
       0.14015232 0.13640289 -0.38015673 -0.56275237
0002c0 89 2f 11 be a3 79 78 be 00 cb fd bd 2c 63 c4 3c
       -0.1417829 -0.2426515 -0.12392235 0.02397307
0002d0 bf f6 d8 be 78 33 d6 3d 2a 9d dd 3d 8a 9d a4 3e
       -0.42375752 0.10459036 0.10820992 0.32151443
0002e0 3d 69 b2 be 03 cb bf be 30 a4 61 be a1 49 9e 3e
       -0.34845915 -0.37459573 -0.22035289 0.3091555
0002f0 f4 c1 0c 3d aa c4 de bd 73 ac 70 3d 0d 0f 90 be
       0.034364656 -0.108773544 0.05875821 -0.28136483
000300 41 56 89 bd 8c 18 fa 3d 60 92 c3 3e da a8 85 be
       -0.06705905 0.12211713 0.38197613 -0.26105386
000310 46 93 8c 3e 60 ed ba 3d 7d 7a e6 3d 3c f7 c8 3d
       0.2745611 0.09127307 0.112538315 0.09812781
000320 16 82 28 3d c8 e2 de bc 39 a4 c9 3d a5 03 15 3b
       0.041139685 -0.027207747 0.09845776 0.0022737768
000330 9f fd 48 be aa c5 9d 3b 85 57 56 bc db 68 c4 be
       -0.19627999 0.004814823 -0.01308239 -0.38361248
000340 18 5f d0 3d 80 cb 3c be 44 9a d1 be 22 00 29 be
       0.10174388 -0.18437004 -0.40938008 -0.16503957
000350 02 be 5b bd 35 d1 98 be 12 10 62 3d 03 66 a6 3e
       -0.053648002 -0.29847112 0.055191107 0.32499704
000360 37 a2 d9 bd 90 16 2b 3d e6 f6 05 be cb 56 89 3e
       -0.10626643 0.041769564 -0.13082466 0.2682403
000370 69 67 fa bd 47 6d 41 3e 2b 84 83 be 9a e0 da bd
       -0.12226755 0.18889342 -0.25686774 -0.106873706
000380 9d cc b0 be 21 98 77 3d e5 8c bb 3d ba b7 6b 3e
       -0.34531108 0.060447816 0.09157733 0.23019305
000390 13 6a 0f 3d 92 07 32 3e 58 c0 d7 be c8 80 b4 3e
       0.03501327 0.173857 -0.42138934 0.35254502
0003a0 9f e1 70 3e eb bf de 3e 65 dd 36 bd 38 e3 d6 bb
       0.23523568 0.43505797 -0.044644732 -0.0065578483
0003b0 a3 22 b6 3e 4b 99 84 3e 8b 7b d4 bc 8a d5 c6 3d
       0.355733 0.25898203 -0.025937816 0.09708698
0003c0 79 f4 bb be 89 1d 32 be 16 fb d1 3d 7f d8 15 bc
       -0.36709955 -0.1739408 0.10252969 -0.009145855
0003d0 38 a2 d7 3d d0 cf c9 3e 02 0c 1e 3e 91 2e 26 3e
       0.10528988 0.3941636 0.15434268 0.16228701
0003e0 6e 5b 5a be 4c c5 1d be 7c 07 0a be ae 40 f3 3d
       -0.2132394 -0.15407294 -0.13479418 0.11877571
0003f0 ec 5d 26 be 5b 4b e6 3d ac 2f 9e 3e 50 3f 23 be
       -0.16246766 0.11244842 0.30895746 -0.1594212

action_model._discrete_distribution.branches.1.bias f4 [3]
000000 ba 67 44 bc 86 03 88 3d cd 3e ff bc
       -0.011987621 0.06641297 -0.031157875

action_model._discrete_distribution.branches.1.weight f4 [3, 256]
000000 7a 96 10 3f 8e 6b 43 be 7e 6f b7 be 27 3b 2d be
       0.5647961 -0.19083998 -0.3582725 -0.16917096
000010 96 00 3b 3d 12 c3 d7 3d ab d1 5c 3e 25 c2 a6 bd
       0.045654856 0.105352536 0.21564357 -0.08142499
000020 1f fa 9f 3e b2 1c 4b be 39 58 01 3e 3b 65 58 3e
       0.31245515 -0.19835165 0.1263131 0.21132366
000030 b6 81 17 3f 45 bb a0 3e e9 e5 c9 3d 3e 65 51 3c
       0.591823 0.31392875 0.09858305 0.012780486
000040 7c 5c d2 3d 73 2a de bd 38 a6 37 bd 31 34 bb bc
       0.10271546 -0.1084794 -0.044836253 -0.022852035
000050 65 c6 dc be 7d f4 26 be 66 68 5c 3e d0 93 c0 bc
       -0.43120113 -0.16304202 0.215242 -0.023507982
000060 8f ad 81 bd 16 e8 c6 3e 26 01 8b 3d 3e 64 0b bf
       -0.06331932 0.38848943 0.067873284 -0.5444983
000070 d0 4f 5c be 7c 0e 2a 3d 83 bf 2b 3c b1 08 48 bd
       -0.21514821 0.04151772 0.010482672 -0.048836414
000080 51 86 03 3e dc 95 a8 be 38 a4 88 bd dc 32 e7 be
       0.12844206 -0.32926834 -0.06671947 -0.4515599
000090 87 f8 a4 bd 92 95 1e 3e 94 ed 20 bd 4d 2a c5 be
       -0.08055215 0.15486744 -0.039289072 -0.38508835
0000a0 f8 9b a9 be fe 3c e7 3c 64 9e ad 3e 62 46 03 3e
       -0.33126807 0.028227326 0.33909905 0.12819818
0000b0 aa 67 2d be 80 d6 bf 3e 82 56 9d 3e a7 c6 80 bc
       -0.16934076 0.37468338 0.30730063 -0.015719725
0000c0 cd d4 00 3e 41 0d c9 3e 0c 5b 9d 3e ce 03 87 3e
       0.12581177 0.39267924 0.30733526 0.2637009
0000d0 16 80 d5 be 5f ed 3f bd 43 ae bf be a9 d9 ce 3e
       -0.41699284 -0.046857234 -0.3743764 0.40400437
0000e0 14 6d aa bd 3e 2e 2b 3f fe af af be 01 e6 0e 3d
       -0.08321586 0.66867435 -0.3431396 0.034887318
0000f0 71 80 3f 3d 25 a2 ea bd 3e be 93 be b3 9d 88 bd
       0.04675335 -0.11456708 -0.2885608 -0.06670704
000100 7f 82 c9 3e 99 81 0c be ef c9 99 be d6 93 af be
       0.39357373 -0.13721313 -0.30036876 -0.34292477
000110 34 d4 75 3e 53 f7 50 be 7b 42 99 3e 2a cf 55 3e
       0.2400673 -0.20406847 0.29933533 0.20879808
000120 01 67 3c 3e db 30 20 3f b4 72 0a 3d e2 41 d3 bd
       0.18398668 0.6257455 0.033800796 -0.103153005
000130 63 92 40 3d 44 28 6d 3e f5 ee be 3d f3 86 7c 3e
       0.047014605 0.23159891 0.09322921 0.24660854
000140 8f 08 d8 bb 6c fb 92 be 7f 90 4c be 75 f3 30 3e
       -0.006592817 -0.28707445 -0.19976996 0.17280371
000150 9f 2a 80 bc 06 57 b7 3c 0a 8c 83 3d 04 e9 43 3e
       -0.015645323 0.022380363 0.06423195 0.19131857
000160 b3 70 64 be 16 63 60 be f1 10 97 3e 7a 2a 08 3f
       -0.22308616 -0.21912798 0.29505113 0.53189814
000170 16 2a 4b be 9d 51 25 3e c1 69 19 be 14 82 0d bd
       -0.19840273 0.16144414 -0.14981748 -0.03454788
000180 7a 8d c5 3b 43 77 30 3e eb b6 a4 3e 72 d2 de bd
       0.006028828 0.17232995 0.32170805 -0.10879983
000190 0b cd fd 3d 1e 74 50 3d 76 a2 1d be fd 1f 59 be
       0.123926245 0.050891988 -0.15394005 -0.21203609
0001a0 47 cc 18 bd 09 0f d2 3d ff bf d2 3e 2a 3f a2 3d
       -0.03730419 0.10256774 0.41162106 0.07922204
0001b0 83 e1 b2 3d 7e 77 4e be 86 84 56 bd 19 58 2c ba
       0.08734419 -0.2016277 -0.052372478 -0.0006574407
0001c0 00 f7 3d 3e 25 a6 56 3d 8f ac 3c 3e 91 46 6a be
       0.18551254 0.05240454 0.18425201 -0.22878481
0001d0 06 ea 9e bd 62 ce ea 3e 9b 0b bc 3e 6a 8b d1 3d
       -0.0775948 0.45860583 0.36727604 0.10231669
0001e0 1d 91 1c be 6c b6 88 be 63 c6 50 bd 9c 4e 1a bb
       -0.15289731 -0.26701677 -0.050970446 -0.002354539
0001f0 86 02 1e 3e 09 cf 58 be 0f 81 d6 bd dd ad 44 bd
       0.1543065 -0.21172728 -0.10473835 -0.04801737
000200 5f e2 ef 3d dc a3 1d be 23 63 1a be 80 8e 40 be
       0.11713099 -0.15394539 -0.1507688 -0.1880436
000210 51 2e 82 be d8 d8 6c bd 18 55 61 3d 92 c8 b1 be
       -0.25425962 -0.057823986 0.055012792 -0.34723336
000220 e3 80 19 bc fe 88 c6 be 74 7a 2f be 7d c9 75 3e
       -0.009369108 -0.38776392 -0.17136556 0.24002643
000230 bc 8f eb be 28 1e be be 3e 26 9c be 5a 86 93 3e
       -0.46008098 -0.37132382 -0.30497926 0.2881344
000240 31 4e dd 3d 10 0c fc bd 4b ae 44 3b 24 03 dc bc
       0.108059295 -0.12306988 0.0030011113 -0.026856966
000250 d0 77 34 3e 05 0d 49 bc 92 77 1e be 96 48 7f 3e
       0.1762383 -0.0122711705 -0.154753 0.24930033
000260 48 d9 dc 3d 04 52 8c 3d ca 7a d1 3d a6 55 0e bd
       0.107836306 0.06851581 0.10228498 -0.03474965
000270 98 b8 e9 be 85 c9 29 be ae bd 1b be 5c 16 b5 3e
       -0.45648646 -0.1658078 -0.15209076 0.3536862
000280 0d 54 05 3e 94 34 80 3e fa af 86 3e 92 97 11 3e
       0.13020344 0.25040114 0.26306134 0.14217976
000290 b7 40 17 3e 73 ce 9f be 4e b4 ba be 83 c0 13 be
       0.1477078 -0.31212196 -0.36465687 -0.14428906
0002a0 04 78 d5 3d bd 9b b1 3d 79 5d b2 be 8d d0 4f 3e
       0.10423282 0.08672283 -0.3483694 0.202944
0002b0 35 3e cc be 60 d3 3b 3e 7a cf 22 3e bf cd 6a be
       -0.3989121 0.18342352 0.15899459 -0.22930048
0002c0 83 e0 97 be 76 17 cf 3d 4a d7 b8 3c f2 99 21 3d
       -0.29663476 0.10111897 0.022563595 0.039453454
0002d0 87 a9 c3 3e 75 27 be be b4 a6 4c be e1 1a 95 3e
       0.38215277 -0.37139478 -0.19985467 0.2912207
0002e0 4b 21 f3 3d ee be 90 bc 30 78 41 3e 48 f6 c4 bc
       0.118715845 -0.017669167 0.18893504 -0.024043217
0002f0 3c 7a e1 3d f6 d6 3e 3e fc 7f 20 3e 16 7c c1 3d
       0.110096425 0.18636689 0.15673822 0.09447496
000300 ac e0 40 bb 96 4d 18 3e 5c a1 39 be 1b ae 97 3e
       -0.002943079 0.14873347 -0.1812796 0.2962502
000310 8f c3 b3 3d 4e 45 c7 3e 70 64 9e be 0b 45 28 3e
       0.08777534 0.38920063 -0.30936003 0.16432588
000320 2a b0 34 3c 7d 7b b0 be 48 2f df 3e c2 fe 46 bc
       0.011028329 -0.34469214 0.4359076 -0.0121457
000330 f4 c6 99 3e 2e e3 32 3d 1c ff 68 3e e8 51 84 be
       0.30034602 0.043673687 0.22753567 -0.2584374
000340 16 0d ef 3e ab 1d d1 3d b7 d9 35 3e 7b db 61 be
       0.4668967 0.10210737 0.17758833 -0.22056381
000350 2f 31 a3 be 85 23 95 3e 3f cb b4 be da f2 9b 3d
       -0.31873462 0.29128662 -0.35311314 0.0761468
000360 a7 b1 00 3e c9 e3 a8 be 72 31 90 bb b0 10 d4 bd
       0.12567769 -0.32986286 -0.0044004256 -0.103547454
000370 4a 07 e7 bd b3 e9 e3 3d ab 84 c5 be 84 71 8e 3d
       -0.11280687 0.11128559 -0.3857778 0.06955245
000380 27 d1 62 be 08 5f 7d 3c 12 55 21 3e f5 04 39 bd
       -0.22150098 0.015464552 0.15755108 -0.045170743
000390 30 b8 7c be 94 b1 b0 be 1a a7 10 be 96 60 d8 bd
       -0.24679637 -0.3451048 -0.14126244 -0.10565297
0003a0 e5 46 bd be a4 3a 5d 3e 26 57 22 be b9 6d b5 be
       -0.3696815 0.21604401 -0.15853557 -0.35435274
0003b0 a2 81 d2 bd 9e 85 2b 3e c2 f0 38 3e 55 eb 88 3e
       -0.10278632 0.1675019 0.18060592 0.26742044
0003c0 c4 cd 4c 3e ce b2 99 be 67 45 87 be 58 48 f0 be
       0.20000368 -0.3001923 -0.26420137 -0.46930194
0003d0 95 a0 dc 3d ae 15 90 3e 6b 45 b2 be 80 bb 06 be
       0.10772816 0.2814154 -0.34818587 -0.13157463
0003e0 4f e5 da 3e da 3b 13 3b 82 ab 9f 3e 2f 5c 0e 3e
       0.42753074 0.0022466094 0.31185538 0.13902353
0003f0 6c 48 d4 3d 2f 34 be 3d d7 46 51 bd 0c 79 d0 3d
       0.10365376 0.09287297 -0.05109295 0.10179338

discrete_action_output_shape f4 [1, 2]
000000 00 00 a0 40 00 00 40 40
       5.0 3.0

network_body._body_endoder.seq_layers.0.bias f4 [256]
000000 c1 50 0b 3e 3d c6 c5 bd a6 37 38 bd 8b 2a 08 be
       0.13605024 -0.096569516 -0.044974945 -0.13297479
000010 90 a5 5c 3d bf 5a 24 bd 11 2a 3a be 63 8b 19 be
       0.05386883 -0.040125605 -0.1818011 -0.14994578
000020 ad eb 64 bd f1 2c ee bc 17 ff 09 3e 9c 55 33 bd
       -0.05588882 -0.029074164 0.13476215 -0.043782815
000030 b1 3e b3 bd 06 fc bf bd 70 30 41 bd 3f af a3 bd
       -0.08752192 -0.093742415 -0.047165334 -0.0799241
000040 ff 46 47 be 62 06 48 be 02 ea 08 bd 11 7a 93 bd
       -0.19460677 -0.19533685 -0.033426292 -0.07201017
000050 ab fc 82 bd 6a cb ec bd 1a 78 01 bd 5b 9b a2 bd
       -0.06395849 -0.11562236 -0.03160868 -0.07939788
000060 4e 08 2d bb 63 33 94 3b eb 03 d1 bb 21 57 fe bd
       -0.0026402655 0.0045227273 -0.006378641 -0.12418962
000070 5c 89 1b 3e 47 32 02 be 90 15 22 bd 4f 1d 98 bd
       0.15189117 -0.12714492 -0.039571345 -0.07427465
000080 d1 ca 8d 3e 85 bf c4 bc 6d 09 f6 ba 57 c4 88 bd
       0.276938 -0.024017105 -0.001877112 -0.06678074
000090 15 70 a1 bd 3d 7e 9d be 3f 17 43 bd d1 55 2e be
       -0.07882706 -0.30760375 -0.04762959 -0.17024924
0000a0 93 f2 80 bb 77 5e 1c be 62 a9 04 be 64 93 21 bd
       -0.003935167 -0.1527041 -0.1295524 -0.039447203
0000b0 cc ee 23 be 9e 13 d1 3d b1 e4 3a 3e c1 59 aa bd
       -0.16009063 0.1020882 0.18251301 -0.083179004
0000c0 b9 6b ee 3d 9d 63 a3 3d 8c 73 b9 3d a6 84 06 3d
       0.1164164 0.07977984 0.09055242 0.032841347
0000d0 56 27 fd bd 03 07 3e 3d 8c 8f d3 bd da 63 1f 3d
       -0.12361018 0.046393406 -0.10330114 0.038913585
0000e0 b6 0e d8 3c f2 45 4a be bf a7 18 be 65 99 ef bd
       0.026374202 -0.19753245 -0.1490774 -0.116991796
0000f0 ae 37 16 bd d3 00 2d 3e a9 4a 39 3d 02 43 00 bd
       -0.036674194 0.16894846 0.045237217 -0.031313904
000100 5d 9b 47 3b 1a f2 e2 bc 09 70 34 bd ad 1d 6d bc
       0.0030457594 -0.027703334 -0.044052158 -0.014472407
000110 09 d6 59 be 11 b4 ee bb 70 36 a6 3c a6 99 41 3d
       -0.21273054 -0.007284649 0.02028963 0.04726567
000120 4e 3b ad bd d4 53 aa bd 5f ec 2a be 22 a0 ee bc
       -0.08458577 -0.0831677 -0.16691731 -0.029129092
000130 d5 aa 33 be ef ed 32 be ec 16 f7 bb 7c 81 aa bd
       -0.17545636 -0.17473577 -0.0075405743 -0.083254784
000140 8b 95 8d bd 69 d4 5e bd 25 b5 1a be 46 f6 1b bd
       -0.06913289 -0.05440179 -0.15108164 -0.03807666
000150 32 68 e3 3d de ff c9 bd 06 88 14 be 9c 8a 11 be
       0.11103858 -0.09863256 -0.14505014 -0.14213032
000160 45 47 e0 bc 0c 5e c1 bd 2a 9e 49 bb 35 4b a2 3d
       -0.027377734 -0.09441766 -0.003076444 0.07924501
000170 15 ca 62 3d e5 14 42 3e 6b 04 7a bd 65 1a 2e bd
       0.0553685 0.18953283 -0.06103937 -0.04250564
000180 68 86 df 3c 8c e3 95 3d 7c 86 e0 bd de 4d 4c bd
       0.02728577 0.07318792 -0.10963151 -0.049878947
000190 05 d9 18 bd 05 cc bd 3b af 5d c8 bc 60 e6 84 3d
       -0.03731634 0.0057921433 -0.024458734 0.06489253
0001a0 a7 4c 85 be c4 35 cf bb ed d7 20 3d 79 d8 4b 3d
       -0.26035044 -0.006323548 0.039268423 0.04976699
0001b0 9b 9b a3 bc 3f 7e 48 be 6c 1b 26 be 7b e1 26 be
       -0.01997166 -0.19579409 -0.16221398 -0.16296951
0001c0 86 53 35 bd 8d 17 da 3d cb d6 02 bd f3 e4 b9 bd
       -0.044269107 0.10649023 -0.031943124 -0.09076872
0001d0 e4 0e 6b bd 04 06 26 3e e0 6b d8 3d a9 7d 54 bd
       -0.057387248 0.16213232 0.105674505 -0.05187765
0001e0 9f e1 28 be aa 14 f5 bc 13 16 86 bc a7 1d 08 be
       -0.16492318 -0.02991708 -0.016367948 -0.13292561
0001f0 d6 3a 4b bc 4a 5b c1 bd 83 a6 60 3d 9f cd d0 bc
       -0.012404164 -0.0944124 0.054846298 -0.025488673
000200 09 09 8b 3d 2f 90 27 bc 9f 8e 50 bc b9 47 ea bd
       0.06788833 -0.010227247 -0.012729316 -0.11439461
000210 9a dd 47 3c 37 98 81 bd 12 38 2f bd 19 52 c6 bc
       0.01219883 -0.06327861 -0.042778082 -0.02420907
000220 e4 36 e6 3d 42 0a 47 3d bd ea 00 be 1f 13 bc bd
       0.11240938 0.048593767 -0.12589546 -0.091833346
000230 03 c9 04 bd 10 5d 1e 3d f1 67 77 bd ee 0f b8 bd
       -0.032418262 0.03866297 -0.06040186 -0.08987413
000240 6e 9a 03 3b 4c 66 24 be d6 8f 8d 3c 03 72 a8 3d
       0.002008106 -0.16054648 0.0172805 0.08224871
000250 35 e0 c5 bd 46 f5 be bd e2 c8 62 be c9 75 a1 bd
       -0.09661905 -0.09324126 -0.22146943 -0.07883794
000260 00 b8 d7 3b c5 93 24 bd 1e 40 1a be d7 e8 c6 be
       0.006583214 -0.040179987 -0.15063521 -0.38849518
000270 65 00 25 be a0 a9 9c bc 56 e9 b3 bd 09 53 03 be
       -0.16113432 -0.019123852 -0.0878474 -0.12824644
000280 d7 06 4a bd f5 46 bc bd 51 e4 66 3b 24 0e 57 bd
       -0.04932293 -0.091932215 0.0035231302 -0.05250372
000290 48 9a 40 bc c9 41 10 3e 72 c4 f3 3d b3 95 bc bc
       -0.0117555335 0.14087595 0.11902703 -0.0230206
0002a0 67 0f 80 3e 35 67 72 3c 43 4d 5a 3d 37 23 01 3d
       0.2501175 0.014795114 0.05329634 0.031527724
0002b0 a9 4e 88 be db 90 8f bc 91 d9 29 be 9c 87 cc bd
       -0.26622513 -0.017525127 -0.16586901 -0.09986803
0002c0 dd 5d 76 3b 6b 41 0d be 01 f6 c7 bc 32 91 35 3e
       0.0037592568 -0.13794486 -0.024409296 0.17731169
0002d0 ad 77 70 3c 46 69 d7 bd df 61 c0 bd b5 70 e1 bd
       0.01467697 -0.10518126 -0.093936674 -0.11007825
0002e0 ac 3e a8 bc 28 54 05 be a4 c8 8a be 0c 8b b6 bd
       -0.020537697 -0.13020384 -0.27106202 -0.0891324
0002f0 29 21 d0 bb 3f 6c 6a bd b5 59 44 be 37 41 1f 3c
       -0.0063516092 -0.057232138 -0.19174846 0.009720138
000300 d7 02 eb 3d 0f e0 19 3d 53 e9 57 3c 1a bf f7 bd
       0.11475151 0.037567195 0.013178187 -0.120969966
000310 52 17 02 3d 14 65 5f bc 26 1e 7b 3d 76 44 b0 bd
       0.03176052 -0.013634939 0.06130805 -0.08606808
000320 59 4e 21 bb c1 9c 2b bc 38 d4 aa 3c db c3 b6 3d
       -0.002461335 -0.010474385 0.020853147 0.08924075
000330 af e3 31 be aa 0b 0f bd ff 94 ce bd 45 bd 1b 3d
       -0.1737201 -0.034923233 -0.100870125 0.0380223
000340 e1 c0 25 be 54 b4 cc bb 1d 0f 96 bd e9 7f a2 bc
       -0.16186859 -0.0062470827 -0.073271014 -0.019836383
000350 f5 2d 30 3d c6 d2 fb 3d e5 9c 93 be ac 2d f5 bc
       0.043012578 0.12296061 -0.2883064 -0.029929005
000360 97 8a 79 3c 58 5a dc bd d4 97 e9 bd 22 f2 32 bd
       0.015230796 -0.10759419 -0.11405912 -0.043687947
000370 7e a4 8a bd 84 8f 38 3a c7 3c 98 bd 67 a6 d3 bd
       -0.06769656 0.00070404285 -0.07433467 -0.10334473
000380 4d ab 86 bd 14 b2 2f 3b 70 c2 f8 bc bd d0 5d be
       -0.06575642 0.0026809024 -0.030366153 -0.21661659
000390 7b 81 09 bd 4d be 1f 3b a9 23 ad bd 1c 7b 25 bd
       -0.033570748 0.0024374903 -0.08454067 -0.04040061
0003a0 21 c3 00 be 0a 35 79 bd 14 a5 55 3d f8 21 2c be
       -0.12574436 -0.060841598 0.052159384 -0.16809833
0003b0 99 49 50 be f8 5d 9b bd ca c6 00 bc 71 54 24 3d
       -0.20340575 -0.075862825 -0.007859895 0.040119592
0003c0 ed 9d 36 3d 60 69 51 3c d9 c7 a5 bd 64 f2 e2 3a
       0.044584204 0.012781471 -0.080947585 0.001731467
0003d0 19 dc 3f bd cc 20 42 be 08 ae a4 3d 64 12 a6 3e
       -0.04684076 -0.18957824 0.08041006 0.32435906
0003e0 5f 0a 2e be fa 2a bb bd c6 30 cd bd 9b c1 a6 bd
       -0.16996144 -0.091390565 -0.100190684 -0.08142396
0003f0 de 43 fe bd 4d c9 67 bd 51 ab df bd 4d b8 d6 3c
       -0.124152884 -0.05658846 -0.10921348 0.026210928

network_body._body_endoder.seq_layers.0.weight f4 [256, 552]
000000 f6 41 a1 3d 38 50 d7 3d cd ec f3 3e 4f 3b 4a be
       0.07873909 0.105133474 0.47641602 -0.19749187
000010 ab 1a a9 be 0f f4 73 be 62 1c 29 bc 0c 49 b7 3d
       -0.3302816 -0.2382357 -0.010321708 0.089494795
000020 f5 d0 1d bd 98 ca 80 be ca dd 92 be 68 69 eb bd
       -0.038529355 -0.25154567 -0.28684837 -0.11494714
000030 82 49 a1 be 9e f4 9a be 30 60 96 bd 85 b2 75 3e
       -0.31501395 -0.30264753 -0.07342565 0.23993881
000040 4f 76 fe bd 80 4a 38 be 1a e4 b1 bd 2b f8 2d be
       -0.12424909 -0.1799717 -0.08686085 -0.169892
000050 35 a3 99 bd f4 7a 15 bf 22 b3 be 3c 2a 9a 93 bd
       -0.075018324 -0.58390737 0.023278777 -0.07207139
000060 3c c5 c3 3e 72 94 c6 3d 0d 1f 11 be d0 f7 65 bc
       0.38236415 0.096962824 -0.14172001 -0.014036134
000070 79 bb ff 3d 5a 98 c9 be 97 c7 87 be 2e 4e 92 3d
       0.124869294 -0.39374048 -0.26519462 0.07143818
000080 9c bb bb bd e3 bb ed bd c8 a4 fa be 03 a1 34 be
       -0.09166643 -0.11608102 -0.48953843 -0.17639546
000090 dc eb a0 be f9 60 08 bf a9 dd 8e bd 02 17 59 3e
       -0.31429946 -0.5327297 -0.06975872 0.21200183
0000a0 ec e1 3c be 04 d1 d0 be 46 0e 4f be b6 a4 27 be
       -0.18445557 -0.40784466 -0.20220289 -0.16371426
0000b0 db 9f 35 be e0 af 21 be 81 7f eb bd 0e 68 21 bd
       -0.17736761 -0.15789747 -0.11498929 -0.039405875
0000c0 4f da 8a be 72 3b 8a bc 0d 4e ee 3d 79 e7 ab bd
       -0.2711968 -0.016874049 0.11635981 -0.08393759
0000d0 5d 30 41 be 61 54 da 3e 88 6f 55 3d bf fc c1 3d
       -0.18866105 0.426425 0.052108318 0.094720356
0000e0 b6 98 27 3d c1 11 49 bd b1 a9 0c bd 06 9c b0 be
       0.04091712 -0.049089197 -0.034341518 -0.34494036
0000f0 30 7d d6 be 8f 20 d3 3d 66 5b f5 bd 94 78 5f 3e
       -0.41892385 0.103089444 -0.119803235 0.2182334
000100 d2 78 ec bd 8d e8 b6 bc 7b 90 b9 bc 48 09 af bd
       -0.11546482 -0.022327686 -0.022651901 -0.08546692
000110 6d 44 ad be 47 6d c9 be f1 aa 4c 3c 3d 4b 93 3c
       -0.33841267 -0.39341184 0.0124919275 0.017980212
000120 d7 41 b4 3e fc 28 f3 be f8 19 e6 3e d6 80 5b 3e
       0.35206482 -0.47492206 0.44941688 0.21435866
000130 08 4b 64 be c2 3b c2 3c f2 00 05 be f6 25 1e be
       -0.22294247 0.023710135 -0.12988642 -0.15444168
000140 58 2b e9 bb 93 9a 3a be 62 63 d3 be 3e c7 36 be
       -0.0071157627 -0.18223028 -0.4128676 -0.17849442
000150 3a 5f d0 3c cc 57 4a 3e fe 35 38 be c9 0c e0 bd
       0.025436033 0.19760054 -0.17989346 -0.109399386
000160 83 4c 13 3e b5 19 7a be ac af 57 3e a5 b1 82 be
       0.14384656 -0.24423869 0.21063107 -0.25526157
000170 69 3f 96 3e c9 39 5f be fa e7 52 3d b1 17 c3 bc
       0.29345253 -0.21799387 0.05149076 -0.023815008
000180 6f 12 d9 bd a1 ae ab 3e 4f 41 a7 be a6 1a 6f be
       -0.10599219 0.3353167 -0.32667014 -0.2335001
000190 39 15 cc be 80 a2 8e 3e 4a 8b d6 bd ce 38 7e 3d
       -0.39859942 0.27858353 -0.10475786 0.062065892
0001a0 f8 5b c7 3d 69 10 0c bd 45 64 92 bd 24 24 df bc
       0.097343385 -0.034195337 -0.07148031 -0.027238913
0001b0 ed c0 55 3e b1 9e a5 be 21 c3 ad bd 4a 48 91 bd
       0.20874377 -0.32347634 -0.084844835 -0.07093866
0001c0 2b 10 28 3e 09 29 4f 3d e2 30 5e 3e 05 f0 07 bf
       0.16412418 0.050576244 0.21698335 -0.53100616
0001d0 de 7a 62 3e 43 47 62 bc 95 7c 8e bd c4 4e 1c be
       0.22117183 -0.013810935 -0.06957356 -0.15264422
0001e0 0a c4 d4 bd 42 d8 f6 bd 25 d0 e2 3d 54 70 ed be
       -0.10388954 -0.12052967 0.11074857 -0.46374762
0001f0 d1 b0 10 3e d8 50 65 3e 8c 59 f6 bd d8 2e 82 bd
       0.1412995 0.2239412 -0.120287985 -0.06356591
000200 da 05 05 3e 2e 1d 66 3d bf 61 d7 3e 09 20 d4 be
       0.12990513 0.05618017 0.42066762 -0.4143069
000210 33 1c 98 ba 95 0e bb be 42 54 59 be 16 c9 0a be
       -0.0011605084 -0.36534563 -0.21223548 -0.1355327
000220 03 7d 91 be 3f 4a 84 bd d9 bb cd bd d6 8a ee be
       -0.2841569 -0.06459474 -0.10045595 -0.46590298
000230 fa d8 c4 bd f3 5e 8e 3e bb b5 17 be ee 81 5b bc
       -0.096116975 0.27806816 -0.14815418 -0.013397677
000240 8d b7 2b 3e d1 f5 e4 3b 74 2a 97 bd 56 81 3d be
       0.16769238 0.0069873114 -0.07381144 -0.18506369
000250 bd 10 a1 be cd 70 06 bf f8 9a 16 be fe 71 ea 3d
       -0.31458083 -0.5251587 -0.14707553 0.114475235
000260 70 8b ec bc ac 28 f3 bb e1 41 76 3d 6e 82 85 be
       -0.028875083 -0.00742062 0.06012142 -0.26076072
000270 30 2c 49 bf a3 34 4d 3e 7f 4c 30 3d a8 ab 08 3d
       -0.7858305 0.2003961 0.043041702 0.03336683
000280 d1 ca e5 3d 5e 3f 56 bd d3 b3 e3 3e e2 f9 cf be
       0.11220325 -0.052306525 0.44473132 -0.40620333
000290 0e 56 15 be 94 b0 ec 3d 30 08 e9 bc 31 6d 53 bc
       -0.14583609 0.11557117 -0.028446287 -0.012904451
0002a0 4e 18 45 3d 44 9d 6d 3d c4 36 39 3e 78 9b 0e bf
       0.048118882 0.05801131 0.18087298 -0.55705976
0002b0 f3 36 dc be 4f 93 1a 3e 76 5d 12 be 71 52 df 3b
       -0.43010673 0.15095256 -0.14293465 0.0068152477
0002c0 4e 75 a5 bd 18 f3 3d 3d b4 63 f7 3e 4e e0 73 be
       -0.08079015 0.04637441 0.48318255 -0.23816034
0002d0 45 31 ea be bd 98 b0 3e 20 df 8b bd d2 b1 eb bd
       -0.45740715 0.3449153 -0.06829667 -0.11508526
0002e0 5a de 4e 3d fa a5 1b be 8d 4b 86 3e 52 23 c6 be
       0.05050502 -0.15200034 0.26229516 -0.38698822
0002f0 6e 67 2a be c8 5d 13 be de 0e bc bd ae 07 b5 3d
       -0.16641018 -0.14391243 -0.09182523 0.088393554
000300 c3 5c e3 3d 14 a9 3c bf 48 71 94 3e 54 5a 41 3e
       0.11101677 -0.7369549 0.28992677 0.18882114
000310 c6 bb a2 be a8 bd d3 bd 9e ab 23 be 75 ff d7 bd
       -0.31783885 -0.103389084 -0.15983436 -0.105467714
000320 76 3e aa bd d5 99 fc 3d 16 03 1b 3e 2e dc 74 3d
       -0.08312695 0.12334029 0.15137896 0.059780292
000330 99 bf 09 bf e2 61 7d bc 42 20 04 be c6 c9 91 bc
       -0.5380798 -0.015465232 -0.1290293 -0.017796408
000340 29 c8 5a 3e 2c 53 27 3d 7e a5 95 bc 54 ef 80 3e
       0.21365418 0.040850803 -0.01826739 0.25182593
000350 e5 66 db bc 39 72 0b be f1 f8 2d be 24 c0 ad bd
       -0.026782462 -0.13617791 -0.16989495 -0.084839135
000360 82 35 4b be 4a 49 a0 be 39 aa 14 3f 80 64 63 bc
       -0.1984463 -0.31305915 0.5807224 -0.013878942
000370 59 8a 94 be e5 8d 15 bf 34 fb 51 be fb 2a aa bd
       -0.290118 -0.5841964 -0.20505983 -0.08308979
000380 76 10 52 3d 82 a3 16 3a 87 32 dc 3e da a4 b2 3e
       0.05128523 0.00057464105 0.430073 0.34891397
000390 94 b7 aa bd 11 01 a2 be 69 2c 0a be 40 fa 6d bd
       -0.08335796 -0.3164144 -0.13493504 -0.058099985
0003a0 93 55 50 be f7 24 ea be 82 49 82 3e 12 a9 02 3e
       -0.20345144 -0.45731327 0.25446707 0.12759808
0003b0 9d 40 f0 be 5d 72 a2 bc be 47 91 bd a1 43 c3 bd
       -0.46924296 -0.019829923 -0.07093762 -0.095343836
0003c0 b7 36 46 be 0c 52 6e 3d 20 b6 79 be 1f d6 92 3e
       -0.1935681 0.058183715 -0.24385881 0.28678986
0003d0 a9 9b a7 3d 89 35 79 3e ba 9c 2b bc ca 36 73 bd
       0.08183987 0.24336828 -0.010474378 -0.059378423
0003e0 d2 df 25 bd fc f9 5b be 58 d4 77 3e 41 a2 75 bc
       -0.040496655 -0.2148208 0.24202096 -0.014992298
0003f0 08 0e ad be c8 d9 b0 3d d0 06 5c bc 33 24 48 be
       -0.33799767 0.086352885 -0.013429359 -0.19545059

network_body._body_endoder.seq_layers.2.bias f4 [256]
000000 b1 51 ed 3d cb d7 20 3d 4f 3b ac bc 4e 2e 7f 3d
       0.11587847 0.039268296 -0.021024374 0.06230002
000010 24 4b 85 bd 8f a8 da 3c e1 64 8f 3d ee 41 a5 bd
       -0.065084726 0.026691703 0.07001663 -0.08069216
000020 5d 16 f0 bc 22 c4 a7 bc 08 29 d7 3d 28 c9 ac bd
       -0.029307539 -0.020479266 0.10505873 -0.08436805
000030 41 01 11 3e d1 a2 dd 3c 9b 2f f0 bc e4 67 00 be
       0.14160635 0.027055176 -0.029319575 -0.12539631
000040 80 98 ff bd b1 06 81 3d 3b 1a f4 be 99 f1 2a bd
       -0.12480259 0.063001044 -0.47676262 -0.04173431
000050 21 77 16 3d a3 7f 16 be e7 ac 19 be a4 e3 17 be
       0.036734704 -0.14697127 -0.15007363 -0.14832932
000060 29 97 af 3c 86 ab d0 3d f5 7d 5b be d3 42 a1 bd
       0.021434383 0.101889655 -0.21434768 -0.07874074
000070 e4 62 c9 3c 9c 34 33 be b3 c2 12 bd 56 04 14 be
       0.024583288 -0.17500538 -0.03583021 -0.14454779
000080 06 54 a2 bc 72 9e b7 3d 9f e5 ef bd 58 df 1d 3d
       -0.019815456 0.08965768 -0.117137186 0.038543075
000090 11 16 48 3c 87 75 21 be d3 d4 df bd eb 44 eb bc
       0.012212292 -0.1576749 -0.10929265 -0.028719386
0000a0 d3 b5 65 be 6c f6 a3 bd d5 5d 22 bd b9 23 df 3b
       -0.22432642 -0.080059856 -0.039640266 0.0068096784
0000b0 4a a5 12 be 4d 43 32 be 80 85 59 bd e8 7f 8e bd
       -0.14320865 -0.17408486 -0.05310583 -0.0695799
0000c0 3b 0e 12 3e 8b e6 65 bd 14 bd d9 bd 08 17 fe bc
       0.14263241 -0.056128066 -0.10631767 -0.031016842
0000d0 d5 9f 25 bd a4 71 9e bd 46 11 db bb 24 c0 53 3d
       -0.04043563 -0.07736519 -0.0066854088 0.05169691
0000e0 8d 18 f4 3c f7 e9 a4 bd a1 2c 4b be f9 43 ff bd
       0.029796863 -0.08052438 -0.19841243 -0.12464137
0000f0 af 31 26 be 8f e0 88 3c 21 ba 08 be 68 c5 53 be
       -0.1622989 0.01670864 -0.13352253 -0.20680773
000100 51 a5 2e bd e7 7e bf bd 81 38 3d be 1d 06 7d bc
       -0.042638127 -0.093503766 -0.18478586 -0.015443352
000110 34 5c 82 3d f7 63 d7 bd 33 f1 e1 bc 81 ab 80 bd
       0.063652426 -0.10517114 -0.027580833 -0.06282712
000120 e2 15 af 3d 14 0f 22 bd 04 5a 94 bd 52 a7 5d 3b
       0.08549096 -0.03956516 -0.072437316 0.0033821655
000130 51 a7 57 be 4a 2d 96 bd fe 89 ce be 58 3f 46 be
       -0.2105992 -0.07332857 -0.40339655 -0.19360101
000140 7a 1f 87 bd 82 6b e1 bd bc 64 fb bd 7e d4 42 3d
       -0.065978006 -0.110068336 -0.12275073 0.04756593
000150 46 ad 14 3c f4 91 61 3d f8 0a 9a bd 55 f4 6f bd
       0.009074515 0.055070832 -0.075216234 -0.058582623
000160 3d 22 21 bd 9c fa 86 be ca 58 40 be 93 46 32 3d
       -0.039339293 -0.26363075 -0.1878387 0.043524336
000170 55 ac c5 bc bd 63 02 bc c2 52 a0 bc cc 46 77 bc
       -0.024130026 -0.00795835 -0.019570712 -0.015092563
000180 6c a0 63 3d d0 41 87 bc 59 3a 23 bd 83 12 31 bd
       0.055572912 -0.016510874 -0.039850567 -0.043230545
000190 5f a3 e9 3d 3e f4 76 bd 36 96 be bc 4d 45 26 3c
       0.11408114 -0.06029152 -0.023264986 0.0101483585
0001a0 0a 03 55 bd bc 8e ae 3d e4 ed 04 3d 65 fa b9 bb
       -0.05200485 0.08523318 0.032453433 -0.0056756013
0001b0 33 0a 30 3d a0 3a f1 bd b3 76 5c bd 0c 66 40 bd
       0.042978477 -0.1177876 -0.053824138 -0.04697232
0001c0 3e 7d e2 bd be 50 fd bc 4b c0 31 3d 02 f2 d5 bd
       -0.11059044 -0.03092229 0.043396275 -0.1044655
0001d0 13 fa 0c be 56 be 3d be 6c a1 4f 3c 1e cb 97 bd
       -0.1376727 -0.18529639 0.012672763 -0.074117884
0001e0 d9 49 13 3e a2 ea 7e bd ec c2 d0 3b 79 f3 98 be
       0.1438364 -0.062235482 0.0063708927 -0.29873255
0001f0 43 47 d3 3d 42 98 17 bd 57 7e 2b 3c df 3d 5c bd
       0.103163265 -0.03701044 0.0104671335 -0.053769942
000200 f2 bc df bd 67 87 0f be 9f 80 ca 3d 7c 4e 10 bd
       -0.1092471 -0.14016496 0.09887814 -0.0352311
000210 ce 80 c4 bc 2b be ae 3c 6e 68 39 bd 0e 17 86 be
       -0.0239872 0.021330914 -0.045265608 -0.26189464
000220 47 2e cc bd 86 91 ff bc 42 72 15 3e 9f 0e 55 bd
       -0.09969764 -0.03119732 0.14594367 -0.052015897
000230 90 87 99 be 7e ff 88 bd d2 c6 a9 bd b7 da db bd
       -0.29986238 -0.06689356 -0.08289875 -0.10735076
000240 be d9 de bd da 5f f8 bd ab 63 f6 3c 2f d9 88 3d
       -0.10881375 -0.12127657 0.030076822 0.066820495
000250 8d a5 d8 3c 34 43 b5 bd 6a a8 8d bd fb 04 34 be
       0.026446128 -0.088507086 -0.06916888 -0.17580025
000260 fb f6 07 be d2 31 5a bb d3 1f 00 be a8 80 05 be
       -0.1327781 -0.0033293855 -0.1251214 -0.1303736
000270 d7 3e 8a bd 4f 50 07 be 14 5f 21 bc de 98 9e 3b
       -0.06750267 -0.13214229 -0.009849329 0.0048400005
000280 39 f5 37 be c1 5c 41 bd dc 66 0b be 19 ce da 3d
       -0.17964639 -0.047207598 -0.13613456 0.10683841
000290 07 3e 08 be b5 e9 97 bd 38 fd 5c be b7 c2 e9 3c
       -0.13304912 -0.07417623 -0.2158097 0.02853523
0002a0 a9 4b f9 bd c5 89 3b ba eb 86 8b bd 3b 07 cc 3c
       -0.12172634 -0.0007154013 -0.06812843 0.024905792
0002b0 ea fa 7c bd 7b a7 5f 3d 71 78 32 be 9d 5f f0 bc
       -0.061762728 0.05460308 -0.17428757 -0.029342467
0002c0 33 38 56 be 38 c7 17 bc 35 d5 1f be 7c fd 20 bc
       -0.20919876 -0.009263806 -0.15608676 -0.00982606
0002d0 ac 5d aa bd 5e a2 5d bd ca 39 57 bc e9 11 c8 3c
       -0.08318648 -0.054109924 -0.013136337 0.024422603
0002e0 e1 6f 4a bd 05 cf 97 be a0 1c 05 be 3f 98 bd 3d
       -0.049423102 -0.2965013 -0.12999201 0.09257554
0002f0 78 40 73 3d ee da 3b 3d 63 9a ea bb 0a c2 67 be
       0.059387654 0.045863084 -0.0071595176 -0.22632614
000300 66 50 80 be d8 bf 8a 3c d9 d8 a3 3c 2a c6 81 bd
       -0.2506134 0.016937181 0.020000862 -0.06336625
000310 4b b6 8b bd af a8 19 3e 69 68 8d be dc 55 75 be
       -0.06821879 0.15005754 -0.2761872 -0.23958534
000320 07 c6 a0 3c 41 e6 25 be 67 eb a1 ba 8d 98 99 bd
       0.019625677 -0.16201116 -0.001235348 -0.074998
000330 7d 8c 38 bd fe 47 37 be 45 89 0c be eb cd 3d be
       -0.045055855 -0.17898557 -0.13724239 -0.18535583
000340 46 2f ce 3c 01 41 13 be a9 e5 21 be 3a e7 c1 bd
       0.025169026 -0.14380266 -0.15810265 -0.09467931
000350 82 1e c2 be 37 8c e1 bc 58 82 21 bd 79 4a c6 bd
       -0.379139 -0.02753268 -0.039430946 -0.09682173
000360 38 1c bd bd 29 51 b6 bd b5 41 8a 3d de b8 a5 3c
       -0.09233898 -0.08902199 0.06750814 0.020229753
000370 f2 80 bb be 84 c1 78 bc ae bb ff bd 7f ad a6 bd
       -0.36621815 -0.0151828565 -0.12486969 -0.081385605
000380 04 23 16 be 0e 19 45 be 27 c0 05 3d 05 b8 f7 3c
       -0.14661795 -0.19247839 0.032653954 0.030239115
000390 55 a3 9f bd 7b e8 5d be 99 ce 34 3e fb 5b 8c bc
       -0.07794825 -0.21670716 0.17656936 -0.017133703
0003a0 5b 48 a6 be ff 0f 1d 3e dd ce 8b bd f2 3b 2b be
       -0.32477078 0.15338133 -0.068265654 -0.16722086
0003b0 3b 49 3c bd 99 06 58 be 43 d3 2f 3b 80 c3 68 3d
       -0.045968276 -0.21096267 0.0026828803 0.05682707
0003c0 1a 41 aa bd 01 83 8f be 15 2e 1a bd 94 3b 0c be
       -0.083131984 -0.28029636 -0.037641603 -0.13694602
0003d0 d4 7c 1e be de 4e c2 3c c5 66 88 be 64 7b 0c be
       -0.15477306 0.023719247 -0.26640907 -0.13718945
0003e0 3d 25 7f bc 89 46 39 bd 1f d5 8a bd 98 f2 69 be
       -0.015572843 -0.045233283 -0.06778931 -0.22846448
0003f0 cb 29 69 3d 9e 30 27 be 76 65 2a 3e b9 d8 89 bb
       0.056924623 -0.1632714 0.16640267 -0.0042067436

network_body._body_endoder.seq_layers.2.weight f4 [256, 256]
000000 f9 dc ae bd be f3 e9 bd 73 e2 39 be 2b c0 62 be
       -0.08538241 -0.11423443 -0.1815279 -0.22143619
000010 58 78 13 be 42 54 bb bd 61 95 f3 bd cb 44 42 be
       -0.14401376 -0.0914693 -0.11893726 -0.18971555
000020 08 fe a9 3c af e2 a6 3d 6c 2d 01 3f 60 d7 47 be
       0.020751014 0.08148705 0.50459933 -0.19515753
000030 a1 a3 8d bd 01 af 15 3d eb ce d1 3b 68 6f 0c be
       -0.06915975 0.03654385 0.0064028404 -0.13714373
000040 d5 78 96 be 31 d2 0a bf 34 dc bd 3d e2 67 87 be
       -0.29389063 -0.54226977 0.09270516 -0.26446444
000050 16 d1 01 3e 99 a6 41 be 02 72 fc bd 8b 6e a3 be
       0.12677416 -0.18911208 -0.12326433 -0.31920275
000060 13 83 ff 3d 63 02 4b 3e 0a b8 b5 bd 13 57 83 3b
       0.12476172 0.19825129 -0.08872993 0.004008183
000070 2d 8d c6 3d e1 eb 04 3e 6d 9c 3f 3e f9 2f f4 bd
       0.09694896 0.12980606 0.18712015 -0.119232126
000080 9f 18 c4 3e a0 a9 1b 3e cd ff 96 3e 3d 5d 0b 3f
       0.38300034 0.15201426 0.29492036 0.54439145
000090 93 42 5a be 91 0f 60 be 68 13 c2 bd 76 a8 e1 3d
       -0.21314459 -0.21880938 -0.09476358 0.110184595
0000a0 80 d2 53 3e 4a 27 56 bf 44 98 48 bd a8 61 37 3e
       0.20685768 -0.836537 -0.048973337 0.17908347
0000b0 83 82 f7 be 85 25 eb 3c 8f 1b 88 bd a2 a3 fd bd
       -0.4834176 0.028704414 -0.066458814 -0.12384726
0000c0 f1 47 d0 3d 73 8d ae 3d f5 84 f3 bc c1 97 c1 3e
       0.10169972 0.08523073 -0.029726485 0.37811092
0000d0 4d 39 cb be 18 eb 00 bf 49 29 d9 bd a6 7f a7 be
       -0.39692155 -0.50358725 -0.10603578 -0.32714576
0000e0 25 da 02 3e 82 9a 4b be 3b b0 dd bd ef 52 01 bf
       0.12778528 -0.19883159 -0.10824629 -0.5051717
0000f0 41 58 1c bf 33 62 83 3e c5 10 1b 3d c6 f5 8c bd
       -0.61072165 0.25660858 0.03785779 -0.06882815
000100 6c 34 e5 3e 01 9f 2b bd 9f 6c d7 be df 12 60 be
       0.44766557 -0.041899685 -0.4207506 -0.21882199
000110 5e 58 26 bf 8f c5 5f 3e ea 2f cd 3b 24 fa a0 3e
       -0.6497859 0.21852706 0.0062618153 0.31440842
000120 ab 03 94 3d 88 3c 2f 3e 30 d4 be bd 10 26 ed be
       0.07227262 0.17112935 -0.09317815 -0.46318102
000130 2c f3 74 3e eb 13 a5 bb 3a 92 b6 bb 5b 2e 2d be
       0.23920888 -0.005037775 -0.005571631 -0.16912214
000140 86 82 5e be 20 7b 40 bd fb a8 e8 3b 48 80 24 be
       -0.21729478 -0.04699242 0.007100222 -0.1606456
000150 d4 5b b0 3e 4b 13 88 bd 44 b2 b3 be 6c fa ca be
       0.3444506 -0.06644305 -0.35096943 -0.39644182
000160 16 5c 91 be 49 77 f0 be 18 2a 9a be 37 1d ba 3e
       -0.28390568 -0.46966007 -0.3011024 0.36350414
000170 64 58 1a bd d5 c1 62 be 06 6f 4c be 34 c0 a8 3e
       -0.037681952 -0.22144254 -0.19964227 0.3295914
000180 c4 af 5b 3e 6e 99 0c be b7 4e 62 be f4 c6 21 3e
       0.21453768 -0.13730404 -0.2210034 0.15798551
000190 3f 31 82 3d ae 32 5d bd 51 fa 98 bc 2a b9 f2 bd
       0.06357049 -0.05400341 -0.018674048 -0.118517235
0001a0 71 60 47 3d a5 17 20 bd 25 c8 f8 3d cd d7 32 3e
       0.048675958 -0.03908505 0.121475495 0.17465134
0001b0 da d8 cc be 0c fe b4 be 16 b3 0c be a8 4f 59 be
       -0.40009195 -0.35350072 -0.13740191 -0.21221793
0001c0 ec ff 3e be 0e b7 f7 3d 77 c0 b3 3c ae 57 5a be
       -0.18652314 0.12095462 0.02194236 -0.2132251
0001d0 71 ca 44 3e 11 f4 16 be 99 f4 ac 3e 73 65 fa be
       0.1921785 -0.14741541 0.33780363 -0.48905525
0001e0 9c 50 11 be b1 ce 4f 3e 19 f4 0a be 5c 8a a3 be
       -0.14190906 0.2029369 -0.13569678 -0.31941497
0001f0 97 72 9f 3c e2 0d 20 bd 7a 73 f7 bd 58 06 51 be
       0.01946382 -0.03907574 -0.12082572 -0.20412576
000200 2a eb 9b 3c 72 a6 e8 3d 2c 2d a1 3e 56 15 bb be
       0.019033033 0.11359872 0.31479776 -0.36539716
000210 71 46 2b 3f 62 95 fc be 50 5e dd 3d 4a 11 03 be
       0.6690436 -0.4933272 0.10809004 -0.12799564
000220 d0 6e 4c be 83 4a 5a be a8 39 ad be 19 df 1f bd
       -0.19964147 -0.21317486 -0.3383305 -0.039031122
000230 00 b7 20 3e 41 7c 94 3e 9f 6e 26 3d 79 01 1d bd
       0.15694809 0.29001048 0.04063284 -0.038331483
000240 eb 6e 81 bd e3 49 0f be 12 4c b0 be b4 6e f3 3d
       -0.06319984 -0.1399303 -0.34433037 0.11886349
000250 45 ef 25 be 01 3e 59 be 16 67 d1 bd 2f 3e fb bd
       -0.16204555 -0.21215059 -0.1022474 -0.1226772
000260 cf 4c 6a 3d 59 d0 80 3e b7 23 d3 be 7c 9d 81 be
       0.057202157 0.25158957 -0.41238186 -0.25315464
000270 c3 38 a8 3e 80 b1 1a be ae 9f bb 3e 8b 54 cd 3e
       0.32855806 -0.15106773 0.36645263 0.40103564
000280 ba ae 46 3d 1a ea 0a bf e9 67 9c be 2b bd 0c 3e
       0.048506476 -0.5426346 -0.30548027 0.13744037
000290 4a 9f 22 bf 2d a7 54 3e 5a 11 70 3d 46 2b 84 3e
       -0.63524306 0.20766897 0.058610298 0.25814265
0002a0 90 e7 4d 3e bc 12 8d 3e db c0 ba 3c e0 2a 86 bd
       0.20107865 0.27553356 0.022797039 -0.065511465
0002b0 b3 70 d1 be 85 ac 41 3d 51 06 2e be 10 52 c9 3d
       -0.40906295 0.047283668 -0.16994597 0.09830105
0002c0 df 9a 22 3e e2 c5 42 be 36 95 52 bb 4c fe 52 3e
       0.15879391 -0.19020799 -0.0032132394 0.20604819
0002d0 bf 3c b8 3d 93 a6 bb bd 1e 54 29 be 4c c2 dd be
       0.089959614 -0.09162631 -0.16535994 -0.433123
0002e0 d4 de 76 3e 0b 62 39 be 7e e5 e2 be fb 8f 50 3d
       0.2410844 -0.18103807 -0.44315714 0.05091856
0002f0 b2 6f d9 3c 5a be 38 be 73 6c ae bc ac 34 95 3e
       0.026542518 -0.18041363 -0.021291947 0.29141748
000300 e3 3d 65 be 7c 31 af be 21 30 80 be ef 0a bf be
       -0.22386889 -0.3421744 -0.2503672 -0.3731303
000310 dc 6c c0 3e 9c 87 35 be 9f 2d 97 3d d1 ce ff be
       0.37583053 -0.17727512 0.073817484 -0.49962476
000320 33 65 cc 3e c0 a8 12 3e 6d ed 93 3e b6 4e f4 bd
       0.3992096 0.14322186 0.2889208 -0.119290754
000330 e3 b8 b6 3e 76 f7 f5 3d a9 3b f1 bd e1 f1 7f 3d
       0.35687932 0.1201009 -0.117789574 0.062486533
000340 45 f5 3b 3e 61 5a df bd fe c1 ab bd 7d 7b 46 3e
       0.18355282 -0.1090591 -0.083866104 0.19383045
000350 4b 0a 09 bc ff 8a e7 3d 0b f9 88 be e0 df 59 3e
       -0.00836427 0.11305808 -0.26752505 0.21276808
000360 eb 67 d4 3e e9 36 9b bb 71 16 27 bd 6e 8c ec 3d
       0.41485533 -0.0047367704 -0.040792886 0.11550222
000370 b2 cb 60 be db 39 d7 bd 9e 97 90 bc 36 eb 92 bd
       -0.21952704 -0.10509082 -0.017650422 -0.07173769
000380 ef 0c 96 3c eb d8 1e 3c 90 6d 01 3e bc f2 36 be
       0.018316714 0.009695272 0.12639451 -0.17866033
000390 72 9c 87 be dc a9 19 bf 13 b0 43 3b dc c4 e7 3d
       -0.26486546 -0.6002481 0.0029859587 0.11316845
0003a0 be 21 01 be 62 5b 05 3e c4 e7 73 3e a0 0f a0 3e
       -0.12610528 0.13023141 0.2381888 0.3126192
0003b0 1d ac f3 be b5 54 ca be e0 78 c3 be a2 a9 c7 be
       -0.4759225 -0.3951775 -0.38178158 -0.38996607
0003c0 61 2c 94 be 06 47 08 bf e2 b1 8c 3d 77 29 06 3e
       -0.28940108 -0.53233373 0.06869866 0.13101755
0003d0 57 ae 74 be be 05 41 3e 14 7e 8b be d2 ab ab bd
       -0.2389463 0.18849847 -0.27244627 -0.083823815
0003e0 6c 42 30 be a3 7d e2 be 94 1c 82 be 55 44 3c be
       -0.17212838 -0.44236478 -0.25412428 -0.18385442
0003f0 e3 7c 4e bd 93 11 fc 3d 8e 1d f4 be 16 a6 c1 3d
       -0.05041207 0.123080395 -0.47678798 0.094555065
